I0919 14:59:02.919998 30642 caffe.cpp:271] Use GPU with device ID 0
I0919 14:59:03.059537 30642 caffe.cpp:275] GPU device name: Tesla P100-PCIE-16GB
I0919 14:59:03.431710 30642 net.cpp:58] Initializing net from parameters: 
name: "InceptionNetwork"
state {
  phase: TEST
  level: 0
  stage: ""
}
layer {
  name: "data"
  type: "ImageData"
  top: "data"
  top: "lable"
  include {
    phase: TEST
  }
  image_data_param {
    source: "test.txt"
    batch_size: 1
    is_color: false
  }
}
layer {
  name: "conv1/7x7_s2"
  type: "Convolution"
  bottom: "data"
  top: "conv1/7x7_s2"
  param {
    lr_mult: 1
    decay_mult: 1
  }
  convolution_param {
    num_output: 64
    bias_term: false
    pad: 3
    kernel_size: 7
    stride: 2
    weight_filler {
      type: "xavier"
    }
  }
}
layer {
  name: "conv1/7x7_s2/bn"
  type: "BatchNorm"
  bottom: "conv1/7x7_s2"
  top: "conv1/7x7_s2/bn"
}
layer {
  name: "conv1/7x7_s2/bn/sc"
  type: "Scale"
  bottom: "conv1/7x7_s2/bn"
  top: "conv1/7x7_s2/bn/sc"
  scale_param {
    bias_term: true
  }
}
layer {
  name: "conv1/7x7_s2/bn/sc/relu"
  type: "ReLU"
  bottom: "conv1/7x7_s2/bn/sc"
  top: "conv1/7x7_s2/bn/sc"
}
layer {
  name: "pool1/3x3_s2"
  type: "Pooling"
  bottom: "conv1/7x7_s2/bn/sc"
  top: "pool1/3x3_s2"
  pooling_param {
    pool: MAX
    kernel_size: 3
    stride: 2
  }
}
layer {
  name: "conv2/3x3_reduce"
  type: "Convolution"
  bottom: "pool1/3x3_s2"
  top: "conv2/3x3_reduce"
  param {
    lr_mult: 1
    decay_mult: 1
  }
  convolution_param {
    num_output: 64
    bias_term: false
    pad: 0
    kernel_size: 1
    stride: 1
    weight_filler {
      type: "xavier"
    }
  }
}
layer {
  name: "conv2/3x3_reduce/bn"
  type: "BatchNorm"
  bottom: "conv2/3x3_reduce"
  top: "conv2/3x3_reduce/bn"
}
layer {
  name: "conv2/3x3_reduce/bn/sc"
  type: "Scale"
  bottom: "conv2/3x3_reduce/bn"
  top: "conv2/3x3_reduce/bn/sc"
  scale_param {
    bias_term: true
  }
}
layer {
  name: "conv2/3x3_reduce/bn/sc/relu"
  type: "ReLU"
  bottom: "conv2/3x3_reduce/bn/sc"
  top: "conv2/3x3_reduce/bn/sc"
}
layer {
  name: "conv2/3x3"
  type: "Convolution"
  bottom: "conv2/3x3_reduce/bn/sc"
  top: "conv2/3x3"
  param {
    lr_mult: 1
    decay_mult: 1
  }
  convolution_param {
    num_output: 192
    bias_term: false
    pad: 1
    kernel_size: 3
    stride: 1
    weight_filler {
      type: "xavier"
    }
  }
}
layer {
  name: "conv2/3x3/bn"
  type: "BatchNorm"
  bottom: "conv2/3x3"
  top: "conv2/3x3/bn"
}
layer {
  name: "conv2/3x3/bn/sc"
  type: "Scale"
  bottom: "conv2/3x3/bn"
  top: "conv2/3x3/bn/sc"
  scale_param {
    bias_term: true
  }
}
layer {
  name: "conv2/3x3/bn/sc/relu"
  type: "ReLU"
  bottom: "conv2/3x3/bn/sc"
  top: "conv2/3x3/bn/sc"
}
layer {
  name: "pool2/3x3_s2"
  type: "Pooling"
  bottom: "conv2/3x3/bn/sc"
  top: "pool2/3x3_s2"
  pooling_param {
    pool: MAX
    kernel_size: 3
    stride: 2
  }
}
layer {
  name: "inception_3a/1x1"
  type: "Convolution"
  bottom: "pool2/3x3_s2"
  top: "inception_3a/1x1"
  param {
    lr_mult: 1
    decay_mult: 1
  }
  convolution_param {
    num_output: 64
    bias_term: false
    pad: 0
    kernel_size: 1
    stride: 1
    weight_filler {
      type: "xavier"
    }
  }
}
layer {
  name: "inception_3a/1x1/bn"
  type: "BatchNorm"
  bottom: "inception_3a/1x1"
  top: "inception_3a/1x1/bn"
}
layer {
  name: "inception_3a/1x1/bn/sc"
  type: "Scale"
  bottom: "inception_3a/1x1/bn"
  top: "inception_3a/1x1/bn/sc"
  scale_param {
    bias_term: true
  }
}
layer {
  name: "inception_3a/1x1/bn/sc/relu"
  type: "ReLU"
  bottom: "inception_3a/1x1/bn/sc"
  top: "inception_3a/1x1/bn/sc"
}
layer {
  name: "inception_3a/3x3_reduce"
  type: "Convolution"
  bottom: "pool2/3x3_s2"
  top: "inception_3a/3x3_reduce"
  param {
    lr_mult: 1
    decay_mult: 1
  }
  convolution_param {
    num_output: 64
    bias_term: false
    pad: 0
    kernel_size: 1
    stride: 1
    weight_filler {
      type: "xavier"
    }
  }
}
layer {
  name: "inception_3a/3x3_reduce/bn"
  type: "BatchNorm"
  bottom: "inception_3a/3x3_reduce"
  top: "inception_3a/3x3_reduce/bn"
}
layer {
  name: "inception_3a/3x3_reduce/bn/sc"
  type: "Scale"
  bottom: "inception_3a/3x3_reduce/bn"
  top: "inception_3a/3x3_reduce/bn/sc"
  scale_param {
    bias_term: true
  }
}
layer {
  name: "inception_3a/3x3_reduce/bn/sc/relu"
  type: "ReLU"
  bottom: "inception_3a/3x3_reduce/bn/sc"
  top: "inception_3a/3x3_reduce/bn/sc"
}
layer {
  name: "inception_3a/3x3"
  type: "Convolution"
  bottom: "inception_3a/3x3_reduce/bn/sc"
  top: "inception_3a/3x3"
  param {
    lr_mult: 1
    decay_mult: 1
  }
  convolution_param {
    num_output: 64
    bias_term: false
    pad: 1
    kernel_size: 3
    stride: 1
    weight_filler {
      type: "xavier"
    }
  }
}
layer {
  name: "inception_3a/3x3/bn"
  type: "BatchNorm"
  bottom: "inception_3a/3x3"
  top: "inception_3a/3x3/bn"
}
layer {
  name: "inception_3a/3x3/bn/sc"
  type: "Scale"
  bottom: "inception_3a/3x3/bn"
  top: "inception_3a/3x3/bn/sc"
  scale_param {
    bias_term: true
  }
}
layer {
  name: "inception_3a/3x3/bn/sc/relu"
  type: "ReLU"
  bottom: "inception_3a/3x3/bn/sc"
  top: "inception_3a/3x3/bn/sc"
}
layer {
  name: "inception_3a/double3x3_reduce"
  type: "Convolution"
  bottom: "pool2/3x3_s2"
  top: "inception_3a/double3x3_reduce"
  param {
    lr_mult: 1
    decay_mult: 1
  }
  convolution_param {
    num_output: 64
    bias_term: false
    pad: 0
    kernel_size: 1
    stride: 1
    weight_filler {
      type: "xavier"
    }
  }
}
layer {
  name: "inception_3a/double3x3_reduce/bn"
  type: "BatchNorm"
  bottom: "inception_3a/double3x3_reduce"
  top: "inception_3a/double3x3_reduce/bn"
}
layer {
  name: "inception_3a/double3x3_reduce/bn/sc"
  type: "Scale"
  bottom: "inception_3a/double3x3_reduce/bn"
  top: "inception_3a/double3x3_reduce/bn/sc"
  scale_param {
    bias_term: true
  }
}
layer {
  name: "inception_3a/double3x3_reduce/bn/sc/relu"
  type: "ReLU"
  bottom: "inception_3a/double3x3_reduce/bn/sc"
  top: "inception_3a/double3x3_reduce/bn/sc"
}
layer {
  name: "inception_3a/double3x3a"
  type: "Convolution"
  bottom: "inception_3a/double3x3_reduce/bn/sc"
  top: "inception_3a/double3x3a"
  param {
    lr_mult: 1
    decay_mult: 1
  }
  convolution_param {
    num_output: 96
    bias_term: false
    pad: 1
    kernel_size: 3
    stride: 1
    weight_filler {
      type: "xavier"
    }
  }
}
layer {
  name: "inception_3a/double3x3a/bn"
  type: "BatchNorm"
  bottom: "inception_3a/double3x3a"
  top: "inception_3a/double3x3a/bn"
}
layer {
  name: "inception_3a/double3x3a/bn/sc"
  type: "Scale"
  bottom: "inception_3a/double3x3a/bn"
  top: "inception_3a/double3x3a/bn/sc"
  scale_param {
    bias_term: true
  }
}
layer {
  name: "inception_3a/double3x3a/bn/sc/relu"
  type: "ReLU"
  bottom: "inception_3a/double3x3a/bn/sc"
  top: "inception_3a/double3x3a/bn/sc"
}
layer {
  name: "inception_3a/double3x3b"
  type: "Convolution"
  bottom: "inception_3a/double3x3a/bn/sc"
  top: "inception_3a/double3x3b"
  param {
    lr_mult: 1
    decay_mult: 1
  }
  convolution_param {
    num_output: 96
    bias_term: false
    pad: 1
    kernel_size: 3
    stride: 1
    weight_filler {
      type: "xavier"
    }
  }
}
layer {
  name: "inception_3a/double3x3b/bn"
  type: "BatchNorm"
  bottom: "inception_3a/double3x3b"
  top: "inception_3a/double3x3b/bn"
}
layer {
  name: "inception_3a/double3x3b/bn/sc"
  type: "Scale"
  bottom: "inception_3a/double3x3b/bn"
  top: "inception_3a/double3x3b/bn/sc"
  scale_param {
    bias_term: true
  }
}
layer {
  name: "inception_3a/double3x3b/bn/sc/relu"
  type: "ReLU"
  bottom: "inception_3a/double3x3b/bn/sc"
  top: "inception_3a/double3x3b/bn/sc"
}
layer {
  name: "inception_3a/pool"
  type: "Pooling"
  bottom: "pool2/3x3_s2"
  top: "inception_3a/pool"
  pooling_param {
    pool: AVE
    kernel_size: 3
    stride: 1
    pad: 1
  }
}
layer {
  name: "inception_3a/pool_proj"
  type: "Convolution"
  bottom: "inception_3a/pool"
  top: "inception_3a/pool_proj"
  param {
    lr_mult: 1
    decay_mult: 1
  }
  convolution_param {
    num_output: 32
    bias_term: false
    pad: 0
    kernel_size: 1
    stride: 1
    weight_filler {
      type: "xavier"
    }
  }
}
layer {
  name: "inception_3a/pool_proj/bn"
  type: "BatchNorm"
  bottom: "inception_3a/pool_proj"
  top: "inception_3a/pool_proj/bn"
}
layer {
  name: "inception_3a/pool_proj/bn/sc"
  type: "Scale"
  bottom: "inception_3a/pool_proj/bn"
  top: "inception_3a/pool_proj/bn/sc"
  scale_param {
    bias_term: true
  }
}
layer {
  name: "inception_3a/pool_proj/bn/sc/relu"
  type: "ReLU"
  bottom: "inception_3a/pool_proj/bn/sc"
  top: "inception_3a/pool_proj/bn/sc"
}
layer {
  name: "inception_3a/output"
  type: "Concat"
  bottom: "inception_3a/1x1/bn/sc"
  bottom: "inception_3a/3x3/bn/sc"
  bottom: "inception_3a/double3x3b/bn/sc"
  bottom: "inception_3a/pool_proj/bn/sc"
  top: "inception_3a/output"
}
layer {
  name: "inception_3b/1x1"
  type: "Convolution"
  bottom: "inception_3a/output"
  top: "inception_3b/1x1"
  param {
    lr_mult: 1
    decay_mult: 1
  }
  convolution_param {
    num_output: 64
    bias_term: false
    pad: 0
    kernel_size: 1
    stride: 1
    weight_filler {
      type: "xavier"
    }
  }
}
layer {
  name: "inception_3b/1x1/bn"
  type: "BatchNorm"
  bottom: "inception_3b/1x1"
  top: "inception_3b/1x1/bn"
}
layer {
  name: "inception_3b/1x1/bn/sc"
  type: "Scale"
  bottom: "inception_3b/1x1/bn"
  top: "inception_3b/1x1/bn/sc"
  scale_param {
    bias_term: true
  }
}
layer {
  name: "inception_3b/1x1/bn/sc/relu"
  type: "ReLU"
  bottom: "inception_3b/1x1/bn/sc"
  top: "inception_3b/1x1/bn/sc"
}
layer {
  name: "inception_3b/3x3_reduce"
  type: "Convolution"
  bottom: "inception_3a/output"
  top: "inception_3b/3x3_reduce"
  param {
    lr_mult: 1
    decay_mult: 1
  }
  convolution_param {
    num_output: 64
    bias_term: false
    pad: 0
    kernel_size: 1
    stride: 1
    weight_filler {
      type: "xavier"
    }
  }
}
layer {
  name: "inception_3b/3x3_reduce/bn"
  type: "BatchNorm"
  bottom: "inception_3b/3x3_reduce"
  top: "inception_3b/3x3_reduce/bn"
}
layer {
  name: "inception_3b/3x3_reduce/bn/sc"
  type: "Scale"
  bottom: "inception_3b/3x3_reduce/bn"
  top: "inception_3b/3x3_reduce/bn/sc"
  scale_param {
    bias_term: true
  }
}
layer {
  name: "inception_3b/3x3_reduce/bn/sc/relu"
  type: "ReLU"
  bottom: "inception_3b/3x3_reduce/bn/sc"
  top: "inception_3b/3x3_reduce/bn/sc"
}
layer {
  name: "inception_3b/3x3"
  type: "Convolution"
  bottom: "inception_3b/3x3_reduce/bn/sc"
  top: "inception_3b/3x3"
  param {
    lr_mult: 1
    decay_mult: 1
  }
  convolution_param {
    num_output: 96
    bias_term: false
    pad: 1
    kernel_size: 3
    stride: 1
    weight_filler {
      type: "xavier"
    }
  }
}
layer {
  name: "inception_3b/3x3/bn"
  type: "BatchNorm"
  bottom: "inception_3b/3x3"
  top: "inception_3b/3x3/bn"
}
layer {
  name: "inception_3b/3x3/bn/sc"
  type: "Scale"
  bottom: "inception_3b/3x3/bn"
  top: "inception_3b/3x3/bn/sc"
  scale_param {
    bias_term: true
  }
}
layer {
  name: "inception_3b/3x3/bn/sc/relu"
  type: "ReLU"
  bottom: "inception_3b/3x3/bn/sc"
  top: "inception_3b/3x3/bn/sc"
}
layer {
  name: "inception_3b/double3x3_reduce"
  type: "Convolution"
  bottom: "inception_3a/output"
  top: "inception_3b/double3x3_reduce"
  param {
    lr_mult: 1
    decay_mult: 1
  }
  convolution_param {
    num_output: 64
    bias_term: false
    pad: 0
    kernel_size: 1
    stride: 1
    weight_filler {
      type: "xavier"
    }
  }
}
layer {
  name: "inception_3b/double3x3_reduce/bn"
  type: "BatchNorm"
  bottom: "inception_3b/double3x3_reduce"
  top: "inception_3b/double3x3_reduce/bn"
}
layer {
  name: "inception_3b/double3x3_reduce/bn/sc"
  type: "Scale"
  bottom: "inception_3b/double3x3_reduce/bn"
  top: "inception_3b/double3x3_reduce/bn/sc"
  scale_param {
    bias_term: true
  }
}
layer {
  name: "inception_3b/double3x3_reduce/bn/sc/relu"
  type: "ReLU"
  bottom: "inception_3b/double3x3_reduce/bn/sc"
  top: "inception_3b/double3x3_reduce/bn/sc"
}
layer {
  name: "inception_3b/double3x3a"
  type: "Convolution"
  bottom: "inception_3b/double3x3_reduce/bn/sc"
  top: "inception_3b/double3x3a"
  param {
    lr_mult: 1
    decay_mult: 1
  }
  convolution_param {
    num_output: 96
    bias_term: false
    pad: 1
    kernel_size: 3
    stride: 1
    weight_filler {
      type: "xavier"
    }
  }
}
layer {
  name: "inception_3b/double3x3a/bn"
  type: "BatchNorm"
  bottom: "inception_3b/double3x3a"
  top: "inception_3b/double3x3a/bn"
}
layer {
  name: "inception_3b/double3x3a/bn/sc"
  type: "Scale"
  bottom: "inception_3b/double3x3a/bn"
  top: "inception_3b/double3x3a/bn/sc"
  scale_param {
    bias_term: true
  }
}
layer {
  name: "inception_3b/double3x3a/bn/sc/relu"
  type: "ReLU"
  bottom: "inception_3b/double3x3a/bn/sc"
  top: "inception_3b/double3x3a/bn/sc"
}
layer {
  name: "inception_3b/double3x3b"
  type: "Convolution"
  bottom: "inception_3b/double3x3a/bn/sc"
  top: "inception_3b/double3x3b"
  param {
    lr_mult: 1
    decay_mult: 1
  }
  convolution_param {
    num_output: 96
    bias_term: false
    pad: 1
    kernel_size: 3
    stride: 1
    weight_filler {
      type: "xavier"
    }
  }
}
layer {
  name: "inception_3b/double3x3b/bn"
  type: "BatchNorm"
  bottom: "inception_3b/double3x3b"
  top: "inception_3b/double3x3b/bn"
}
layer {
  name: "inception_3b/double3x3b/bn/sc"
  type: "Scale"
  bottom: "inception_3b/double3x3b/bn"
  top: "inception_3b/double3x3b/bn/sc"
  scale_param {
    bias_term: true
  }
}
layer {
  name: "inception_3b/double3x3b/bn/sc/relu"
  type: "ReLU"
  bottom: "inception_3b/double3x3b/bn/sc"
  top: "inception_3b/double3x3b/bn/sc"
}
layer {
  name: "inception_3b/pool"
  type: "Pooling"
  bottom: "inception_3a/output"
  top: "inception_3b/pool"
  pooling_param {
    pool: AVE
    kernel_size: 3
    stride: 1
    pad: 1
  }
}
layer {
  name: "inception_3b/pool_proj"
  type: "Convolution"
  bottom: "inception_3b/pool"
  top: "inception_3b/pool_proj"
  param {
    lr_mult: 1
    decay_mult: 1
  }
  convolution_param {
    num_output: 64
    bias_term: false
    pad: 0
    kernel_size: 1
    stride: 1
    weight_filler {
      type: "xavier"
    }
  }
}
layer {
  name: "inception_3b/pool_proj/bn"
  type: "BatchNorm"
  bottom: "inception_3b/pool_proj"
  top: "inception_3b/pool_proj/bn"
}
layer {
  name: "inception_3b/pool_proj/bn/sc"
  type: "Scale"
  bottom: "inception_3b/pool_proj/bn"
  top: "inception_3b/pool_proj/bn/sc"
  scale_param {
    bias_term: true
  }
}
layer {
  name: "inception_3b/pool_proj/bn/sc/relu"
  type: "ReLU"
  bottom: "inception_3b/pool_proj/bn/sc"
  top: "inception_3b/pool_proj/bn/sc"
}
layer {
  name: "inception_3b/output"
  type: "Concat"
  bottom: "inception_3b/1x1/bn/sc"
  bottom: "inception_3b/3x3/bn/sc"
  bottom: "inception_3b/double3x3b/bn/sc"
  bottom: "inception_3b/pool_proj/bn/sc"
  top: "inception_3b/output"
}
layer {
  name: "inception_3c/3x3_reduce"
  type: "Convolution"
  bottom: "inception_3b/output"
  top: "inception_3c/3x3_reduce"
  param {
    lr_mult: 1
    decay_mult: 1
  }
  convolution_param {
    num_output: 128
    bias_term: false
    pad: 0
    kernel_size: 1
    stride: 1
    weight_filler {
      type: "xavier"
    }
  }
}
layer {
  name: "inception_3c/3x3_reduce/bn"
  type: "BatchNorm"
  bottom: "inception_3c/3x3_reduce"
  top: "inception_3c/3x3_reduce/bn"
}
layer {
  name: "inception_3c/3x3_reduce/bn/sc"
  type: "Scale"
  bottom: "inception_3c/3x3_reduce/bn"
  top: "inception_3c/3x3_reduce/bn/sc"
  scale_param {
    bias_term: true
  }
}
layer {
  name: "inception_3c/3x3_reduce/bn/sc/relu"
  type: "ReLU"
  bottom: "inception_3c/3x3_reduce/bn/sc"
  top: "inception_3c/3x3_reduce/bn/sc"
}
layer {
  name: "inception_3c/3x3"
  type: "Convolution"
  bottom: "inception_3c/3x3_reduce/bn/sc"
  top: "inception_3c/3x3"
  param {
    lr_mult: 1
    decay_mult: 1
  }
  convolution_param {
    num_output: 160
    bias_term: false
    pad: 1
    kernel_size: 3
    stride: 2
    weight_filler {
      type: "xavier"
    }
  }
}
layer {
  name: "inception_3c/3x3/bn"
  type: "BatchNorm"
  bottom: "inception_3c/3x3"
  top: "inception_3c/3x3/bn"
}
layer {
  name: "inception_3c/3x3/bn/sc"
  type: "Scale"
  bottom: "inception_3c/3x3/bn"
  top: "inception_3c/3x3/bn/sc"
  scale_param {
    bias_term: true
  }
}
layer {
  name: "inception_3c/3x3/bn/sc/relu"
  type: "ReLU"
  bottom: "inception_3c/3x3/bn/sc"
  top: "inception_3c/3x3/bn/sc"
}
layer {
  name: "inception_3c/double3x3_reduce"
  type: "Convolution"
  bottom: "inception_3b/output"
  top: "inception_3c/double3x3_reduce"
  param {
    lr_mult: 1
    decay_mult: 1
  }
  convolution_param {
    num_output: 64
    bias_term: false
    pad: 0
    kernel_size: 1
    stride: 1
    weight_filler {
      type: "xavier"
    }
  }
}
layer {
  name: "inception_3c/double3x3_reduce/bn"
  type: "BatchNorm"
  bottom: "inception_3c/double3x3_reduce"
  top: "inception_3c/double3x3_reduce/bn"
}
layer {
  name: "inception_3c/double3x3_reduce/bn/sc"
  type: "Scale"
  bottom: "inception_3c/double3x3_reduce/bn"
  top: "inception_3c/double3x3_reduce/bn/sc"
  scale_param {
    bias_term: true
  }
}
layer {
  name: "inception_3c/double3x3_reduce/bn/sc/relu"
  type: "ReLU"
  bottom: "inception_3c/double3x3_reduce/bn/sc"
  top: "inception_3c/double3x3_reduce/bn/sc"
}
layer {
  name: "inception_3c/double3x3a"
  type: "Convolution"
  bottom: "inception_3c/double3x3_reduce/bn/sc"
  top: "inception_3c/double3x3a"
  param {
    lr_mult: 1
    decay_mult: 1
  }
  convolution_param {
    num_output: 96
    bias_term: false
    pad: 1
    kernel_size: 3
    stride: 1
    weight_filler {
      type: "xavier"
    }
  }
}
layer {
  name: "inception_3c/double3x3a/bn"
  type: "BatchNorm"
  bottom: "inception_3c/double3x3a"
  top: "inception_3c/double3x3a/bn"
}
layer {
  name: "inception_3c/double3x3a/bn/sc"
  type: "Scale"
  bottom: "inception_3c/double3x3a/bn"
  top: "inception_3c/double3x3a/bn/sc"
  scale_param {
    bias_term: true
  }
}
layer {
  name: "inception_3c/double3x3a/bn/sc/relu"
  type: "ReLU"
  bottom: "inception_3c/double3x3a/bn/sc"
  top: "inception_3c/double3x3a/bn/sc"
}
layer {
  name: "inception_3c/double3x3b"
  type: "Convolution"
  bottom: "inception_3c/double3x3a/bn/sc"
  top: "inception_3c/double3x3b"
  param {
    lr_mult: 1
    decay_mult: 1
  }
  convolution_param {
    num_output: 96
    bias_term: false
    pad: 1
    kernel_size: 3
    stride: 2
    weight_filler {
      type: "xavier"
    }
  }
}
layer {
  name: "inception_3c/double3x3b/bn"
  type: "BatchNorm"
  bottom: "inception_3c/double3x3b"
  top: "inception_3c/double3x3b/bn"
}
layer {
  name: "inception_3c/double3x3b/bn/sc"
  type: "Scale"
  bottom: "inception_3c/double3x3b/bn"
  top: "inception_3c/double3x3b/bn/sc"
  scale_param {
    bias_term: true
  }
}
layer {
  name: "inception_3c/double3x3b/bn/sc/relu"
  type: "ReLU"
  bottom: "inception_3c/double3x3b/bn/sc"
  top: "inception_3c/double3x3b/bn/sc"
}
layer {
  name: "inception_3c/pool"
  type: "Pooling"
  bottom: "inception_3b/output"
  top: "inception_3c/pool"
  pooling_param {
    pool: MAX
    kernel_size: 3
    stride: 2
  }
}
layer {
  name: "inception_3c/output"
  type: "Concat"
  bottom: "inception_3c/3x3/bn/sc"
  bottom: "inception_3c/double3x3b/bn/sc"
  bottom: "inception_3c/pool"
  top: "inception_3c/output"
}
layer {
  name: "inception_4a/1x1"
  type: "Convolution"
  bottom: "inception_3c/output"
  top: "inception_4a/1x1"
  param {
    lr_mult: 1
    decay_mult: 1
  }
  convolution_param {
    num_output: 224
    bias_term: false
    pad: 0
    kernel_size: 1
    stride: 1
    weight_filler {
      type: "xavier"
    }
  }
}
layer {
  name: "inception_4a/1x1/bn"
  type: "BatchNorm"
  bottom: "inception_4a/1x1"
  top: "inception_4a/1x1/bn"
}
layer {
  name: "inception_4a/1x1/bn/sc"
  type: "Scale"
  bottom: "inception_4a/1x1/bn"
  top: "inception_4a/1x1/bn/sc"
  scale_param {
    bias_term: true
  }
}
layer {
  name: "inception_4a/1x1/bn/sc/relu"
  type: "ReLU"
  bottom: "inception_4a/1x1/bn/sc"
  top: "inception_4a/1x1/bn/sc"
}
layer {
  name: "inception_4a/3x3_reduce"
  type: "Convolution"
  bottom: "inception_3c/output"
  top: "inception_4a/3x3_reduce"
  param {
    lr_mult: 1
    decay_mult: 1
  }
  convolution_param {
    num_output: 64
    bias_term: false
    pad: 0
    kernel_size: 1
    stride: 1
    weight_filler {
      type: "xavier"
    }
  }
}
layer {
  name: "inception_4a/3x3_reduce/bn"
  type: "BatchNorm"
  bottom: "inception_4a/3x3_reduce"
  top: "inception_4a/3x3_reduce/bn"
}
layer {
  name: "inception_4a/3x3_reduce/bn/sc"
  type: "Scale"
  bottom: "inception_4a/3x3_reduce/bn"
  top: "inception_4a/3x3_reduce/bn/sc"
  scale_param {
    bias_term: true
  }
}
layer {
  name: "inception_4a/3x3_reduce/bn/sc/relu"
  type: "ReLU"
  bottom: "inception_4a/3x3_reduce/bn/sc"
  top: "inception_4a/3x3_reduce/bn/sc"
}
layer {
  name: "inception_4a/3x3"
  type: "Convolution"
  bottom: "inception_4a/3x3_reduce/bn/sc"
  top: "inception_4a/3x3"
  param {
    lr_mult: 1
    decay_mult: 1
  }
  convolution_param {
    num_output: 96
    bias_term: false
    pad: 1
    kernel_size: 3
    stride: 1
    weight_filler {
      type: "xavier"
    }
  }
}
layer {
  name: "inception_4a/3x3/bn"
  type: "BatchNorm"
  bottom: "inception_4a/3x3"
  top: "inception_4a/3x3/bn"
}
layer {
  name: "inception_4a/3x3/bn/sc"
  type: "Scale"
  bottom: "inception_4a/3x3/bn"
  top: "inception_4a/3x3/bn/sc"
  scale_param {
    bias_term: true
  }
}
layer {
  name: "inception_4a/3x3/bn/sc/relu"
  type: "ReLU"
  bottom: "inception_4a/3x3/bn/sc"
  top: "inception_4a/3x3/bn/sc"
}
layer {
  name: "inception_4a/double3x3_reduce"
  type: "Convolution"
  bottom: "inception_3c/output"
  top: "inception_4a/double3x3_reduce"
  param {
    lr_mult: 1
    decay_mult: 1
  }
  convolution_param {
    num_output: 96
    bias_term: false
    pad: 0
    kernel_size: 1
    stride: 1
    weight_filler {
      type: "xavier"
    }
  }
}
layer {
  name: "inception_4a/double3x3_reduce/bn"
  type: "BatchNorm"
  bottom: "inception_4a/double3x3_reduce"
  top: "inception_4a/double3x3_reduce/bn"
}
layer {
  name: "inception_4a/double3x3_reduce/bn/sc"
  type: "Scale"
  bottom: "inception_4a/double3x3_reduce/bn"
  top: "inception_4a/double3x3_reduce/bn/sc"
  scale_param {
    bias_term: true
  }
}
layer {
  name: "inception_4a/double3x3_reduce/bn/sc/relu"
  type: "ReLU"
  bottom: "inception_4a/double3x3_reduce/bn/sc"
  top: "inception_4a/double3x3_reduce/bn/sc"
}
layer {
  name: "inception_4a/double3x3a"
  type: "Convolution"
  bottom: "inception_4a/double3x3_reduce/bn/sc"
  top: "inception_4a/double3x3a"
  param {
    lr_mult: 1
    decay_mult: 1
  }
  convolution_param {
    num_output: 128
    bias_term: false
    pad: 1
    kernel_size: 3
    stride: 1
    weight_filler {
      type: "xavier"
    }
  }
}
layer {
  name: "inception_4a/double3x3a/bn"
  type: "BatchNorm"
  bottom: "inception_4a/double3x3a"
  top: "inception_4a/double3x3a/bn"
}
layer {
  name: "inception_4a/double3x3a/bn/sc"
  type: "Scale"
  bottom: "inception_4a/double3x3a/bn"
  top: "inception_4a/double3x3a/bn/sc"
  scale_param {
    bias_term: true
  }
}
layer {
  name: "inception_4a/double3x3a/bn/sc/relu"
  type: "ReLU"
  bottom: "inception_4a/double3x3a/bn/sc"
  top: "inception_4a/double3x3a/bn/sc"
}
layer {
  name: "inception_4a/double3x3b"
  type: "Convolution"
  bottom: "inception_4a/double3x3a/bn/sc"
  top: "inception_4a/double3x3b"
  param {
    lr_mult: 1
    decay_mult: 1
  }
  convolution_param {
    num_output: 128
    bias_term: false
    pad: 1
    kernel_size: 3
    stride: 1
    weight_filler {
      type: "xavier"
    }
  }
}
layer {
  name: "inception_4a/double3x3b/bn"
  type: "BatchNorm"
  bottom: "inception_4a/double3x3b"
  top: "inception_4a/double3x3b/bn"
}
layer {
  name: "inception_4a/double3x3b/bn/sc"
  type: "Scale"
  bottom: "inception_4a/double3x3b/bn"
  top: "inception_4a/double3x3b/bn/sc"
  scale_param {
    bias_term: true
  }
}
layer {
  name: "inception_4a/double3x3b/bn/sc/relu"
  type: "ReLU"
  bottom: "inception_4a/double3x3b/bn/sc"
  top: "inception_4a/double3x3b/bn/sc"
}
layer {
  name: "inception_4a/pool"
  type: "Pooling"
  bottom: "inception_3c/output"
  top: "inception_4a/pool"
  pooling_param {
    pool: AVE
    kernel_size: 3
    stride: 1
    pad: 1
  }
}
layer {
  name: "inception_4a/pool_proj"
  type: "Convolution"
  bottom: "inception_4a/pool"
  top: "inception_4a/pool_proj"
  param {
    lr_mult: 1
    decay_mult: 1
  }
  convolution_param {
    num_output: 128
    bias_term: false
    pad: 0
    kernel_size: 1
    stride: 1
    weight_filler {
      type: "xavier"
    }
  }
}
layer {
  name: "inception_4a/pool_proj/bn"
  type: "BatchNorm"
  bottom: "inception_4a/pool_proj"
  top: "inception_4a/pool_proj/bn"
}
layer {
  name: "inception_4a/pool_proj/bn/sc"
  type: "Scale"
  bottom: "inception_4a/pool_proj/bn"
  top: "inception_4a/pool_proj/bn/sc"
  scale_param {
    bias_term: true
  }
}
layer {
  name: "inception_4a/pool_proj/bn/sc/relu"
  type: "ReLU"
  bottom: "inception_4a/pool_proj/bn/sc"
  top: "inception_4a/pool_proj/bn/sc"
}
layer {
  name: "inception_4a/output"
  type: "Concat"
  bottom: "inception_4a/1x1/bn/sc"
  bottom: "inception_4a/3x3/bn/sc"
  bottom: "inception_4a/double3x3b/bn/sc"
  bottom: "inception_4a/pool_proj/bn/sc"
  top: "inception_4a/output"
}
layer {
  name: "inception_4b/1x1"
  type: "Convolution"
  bottom: "inception_4a/output"
  top: "inception_4b/1x1"
  param {
    lr_mult: 1
    decay_mult: 1
  }
  convolution_param {
    num_output: 192
    bias_term: false
    pad: 0
    kernel_size: 1
    stride: 1
    weight_filler {
      type: "xavier"
    }
  }
}
layer {
  name: "inception_4b/1x1/bn"
  type: "BatchNorm"
  bottom: "inception_4b/1x1"
  top: "inception_4b/1x1/bn"
}
layer {
  name: "inception_4b/1x1/bn/sc"
  type: "Scale"
  bottom: "inception_4b/1x1/bn"
  top: "inception_4b/1x1/bn/sc"
  scale_param {
    bias_term: true
  }
}
layer {
  name: "inception_4b/1x1/bn/sc/relu"
  type: "ReLU"
  bottom: "inception_4b/1x1/bn/sc"
  top: "inception_4b/1x1/bn/sc"
}
layer {
  name: "inception_4b/3x3_reduce"
  type: "Convolution"
  bottom: "inception_4a/output"
  top: "inception_4b/3x3_reduce"
  param {
    lr_mult: 1
    decay_mult: 1
  }
  convolution_param {
    num_output: 96
    bias_term: false
    pad: 0
    kernel_size: 1
    stride: 1
    weight_filler {
      type: "xavier"
    }
  }
}
layer {
  name: "inception_4b/3x3_reduce/bn"
  type: "BatchNorm"
  bottom: "inception_4b/3x3_reduce"
  top: "inception_4b/3x3_reduce/bn"
}
layer {
  name: "inception_4b/3x3_reduce/bn/sc"
  type: "Scale"
  bottom: "inception_4b/3x3_reduce/bn"
  top: "inception_4b/3x3_reduce/bn/sc"
  scale_param {
    bias_term: true
  }
}
layer {
  name: "inception_4b/3x3_reduce/bn/sc/relu"
  type: "ReLU"
  bottom: "inception_4b/3x3_reduce/bn/sc"
  top: "inception_4b/3x3_reduce/bn/sc"
}
layer {
  name: "inception_4b/3x3"
  type: "Convolution"
  bottom: "inception_4b/3x3_reduce/bn/sc"
  top: "inception_4b/3x3"
  param {
    lr_mult: 1
    decay_mult: 1
  }
  convolution_param {
    num_output: 128
    bias_term: false
    pad: 1
    kernel_size: 3
    stride: 1
    weight_filler {
      type: "xavier"
    }
  }
}
layer {
  name: "inception_4b/3x3/bn"
  type: "BatchNorm"
  bottom: "inception_4b/3x3"
  top: "inception_4b/3x3/bn"
}
layer {
  name: "inception_4b/3x3/bn/sc"
  type: "Scale"
  bottom: "inception_4b/3x3/bn"
  top: "inception_4b/3x3/bn/sc"
  scale_param {
    bias_term: true
  }
}
layer {
  name: "inception_4b/3x3/bn/sc/relu"
  type: "ReLU"
  bottom: "inception_4b/3x3/bn/sc"
  top: "inception_4b/3x3/bn/sc"
}
layer {
  name: "inception_4b/double3x3_reduce"
  type: "Convolution"
  bottom: "inception_4a/output"
  top: "inception_4b/double3x3_reduce"
  param {
    lr_mult: 1
    decay_mult: 1
  }
  convolution_param {
    num_output: 96
    bias_term: false
    pad: 0
    kernel_size: 1
    stride: 1
    weight_filler {
      type: "xavier"
    }
  }
}
layer {
  name: "inception_4b/double3x3_reduce/bn"
  type: "BatchNorm"
  bottom: "inception_4b/double3x3_reduce"
  top: "inception_4b/double3x3_reduce/bn"
}
layer {
  name: "inception_4b/double3x3_reduce/bn/sc"
  type: "Scale"
  bottom: "inception_4b/double3x3_reduce/bn"
  top: "inception_4b/double3x3_reduce/bn/sc"
  scale_param {
    bias_term: true
  }
}
layer {
  name: "inception_4b/double3x3_reduce/bn/sc/relu"
  type: "ReLU"
  bottom: "inception_4b/double3x3_reduce/bn/sc"
  top: "inception_4b/double3x3_reduce/bn/sc"
}
layer {
  name: "inception_4b/double3x3a"
  type: "Convolution"
  bottom: "inception_4b/double3x3_reduce/bn/sc"
  top: "inception_4b/double3x3a"
  param {
    lr_mult: 1
    decay_mult: 1
  }
  convolution_param {
    num_output: 128
    bias_term: false
    pad: 1
    kernel_size: 3
    stride: 1
    weight_filler {
      type: "xavier"
    }
  }
}
layer {
  name: "inception_4b/double3x3a/bn"
  type: "BatchNorm"
  bottom: "inception_4b/double3x3a"
  top: "inception_4b/double3x3a/bn"
}
layer {
  name: "inception_4b/double3x3a/bn/sc"
  type: "Scale"
  bottom: "inception_4b/double3x3a/bn"
  top: "inception_4b/double3x3a/bn/sc"
  scale_param {
    bias_term: true
  }
}
layer {
  name: "inception_4b/double3x3a/bn/sc/relu"
  type: "ReLU"
  bottom: "inception_4b/double3x3a/bn/sc"
  top: "inception_4b/double3x3a/bn/sc"
}
layer {
  name: "inception_4b/double3x3b"
  type: "Convolution"
  bottom: "inception_4b/double3x3a/bn/sc"
  top: "inception_4b/double3x3b"
  param {
    lr_mult: 1
    decay_mult: 1
  }
  convolution_param {
    num_output: 128
    bias_term: false
    pad: 1
    kernel_size: 3
    stride: 1
    weight_filler {
      type: "xavier"
    }
  }
}
layer {
  name: "inception_4b/double3x3b/bn"
  type: "BatchNorm"
  bottom: "inception_4b/double3x3b"
  top: "inception_4b/double3x3b/bn"
}
layer {
  name: "inception_4b/double3x3b/bn/sc"
  type: "Scale"
  bottom: "inception_4b/double3x3b/bn"
  top: "inception_4b/double3x3b/bn/sc"
  scale_param {
    bias_term: true
  }
}
layer {
  name: "inception_4b/double3x3b/bn/sc/relu"
  type: "ReLU"
  bottom: "ince
I0919 14:59:03.433498 30642 layer_factory.hpp:77] Creating layer data
I0919 14:59:03.433540 30642 net.cpp:100] Creating Layer data
I0919 14:59:03.433549 30642 net.cpp:408] data -> data
I0919 14:59:03.433575 30642 net.cpp:408] data -> lable
I0919 14:59:03.433598 30642 image_data_layer.cpp:39] Opening file test.txt
I0919 14:59:03.433841 30642 image_data_layer.cpp:59] A total of 300 images.
I0919 14:59:03.461704 30642 image_data_layer.cpp:86] output data size: 1,1,1024,1024
I0919 14:59:03.473423 30642 net.cpp:150] Setting up data
I0919 14:59:03.473449 30642 net.cpp:157] Top shape: 1 1 1024 1024 (1048576)
I0919 14:59:03.473456 30642 net.cpp:157] Top shape: 1 (1)
I0919 14:59:03.473461 30642 net.cpp:165] Memory required for data: 4194308
I0919 14:59:03.473472 30642 layer_factory.hpp:77] Creating layer conv1/7x7_s2
I0919 14:59:03.473500 30642 net.cpp:100] Creating Layer conv1/7x7_s2
I0919 14:59:03.473510 30642 net.cpp:434] conv1/7x7_s2 <- data
I0919 14:59:03.473531 30642 net.cpp:408] conv1/7x7_s2 -> conv1/7x7_s2
I0919 14:59:03.475762 30642 net.cpp:150] Setting up conv1/7x7_s2
I0919 14:59:03.475814 30642 net.cpp:157] Top shape: 1 64 512 512 (16777216)
I0919 14:59:03.475823 30642 net.cpp:165] Memory required for data: 71303172
I0919 14:59:03.475877 30642 layer_factory.hpp:77] Creating layer conv1/7x7_s2/bn
I0919 14:59:03.475903 30642 net.cpp:100] Creating Layer conv1/7x7_s2/bn
I0919 14:59:03.475931 30642 net.cpp:434] conv1/7x7_s2/bn <- conv1/7x7_s2
I0919 14:59:03.475947 30642 net.cpp:408] conv1/7x7_s2/bn -> conv1/7x7_s2/bn
I0919 14:59:03.480046 30642 net.cpp:150] Setting up conv1/7x7_s2/bn
I0919 14:59:03.480074 30642 net.cpp:157] Top shape: 1 64 512 512 (16777216)
I0919 14:59:03.480082 30642 net.cpp:165] Memory required for data: 138412036
I0919 14:59:03.480108 30642 layer_factory.hpp:77] Creating layer conv1/7x7_s2/bn/sc
I0919 14:59:03.480129 30642 net.cpp:100] Creating Layer conv1/7x7_s2/bn/sc
I0919 14:59:03.480139 30642 net.cpp:434] conv1/7x7_s2/bn/sc <- conv1/7x7_s2/bn
I0919 14:59:03.480151 30642 net.cpp:408] conv1/7x7_s2/bn/sc -> conv1/7x7_s2/bn/sc
I0919 14:59:03.480237 30642 layer_factory.hpp:77] Creating layer conv1/7x7_s2/bn/sc
I0919 14:59:03.483166 30642 net.cpp:150] Setting up conv1/7x7_s2/bn/sc
I0919 14:59:03.483191 30642 net.cpp:157] Top shape: 1 64 512 512 (16777216)
I0919 14:59:03.483199 30642 net.cpp:165] Memory required for data: 205520900
I0919 14:59:03.483220 30642 layer_factory.hpp:77] Creating layer conv1/7x7_s2/bn/sc/relu
I0919 14:59:03.483242 30642 net.cpp:100] Creating Layer conv1/7x7_s2/bn/sc/relu
I0919 14:59:03.483249 30642 net.cpp:434] conv1/7x7_s2/bn/sc/relu <- conv1/7x7_s2/bn/sc
I0919 14:59:03.483261 30642 net.cpp:395] conv1/7x7_s2/bn/sc/relu -> conv1/7x7_s2/bn/sc (in-place)
I0919 14:59:03.483314 30642 net.cpp:150] Setting up conv1/7x7_s2/bn/sc/relu
I0919 14:59:03.483326 30642 net.cpp:157] Top shape: 1 64 512 512 (16777216)
I0919 14:59:03.483335 30642 net.cpp:165] Memory required for data: 272629764
I0919 14:59:03.483341 30642 layer_factory.hpp:77] Creating layer pool1/3x3_s2
I0919 14:59:03.483355 30642 net.cpp:100] Creating Layer pool1/3x3_s2
I0919 14:59:03.483364 30642 net.cpp:434] pool1/3x3_s2 <- conv1/7x7_s2/bn/sc
I0919 14:59:03.483376 30642 net.cpp:408] pool1/3x3_s2 -> pool1/3x3_s2
I0919 14:59:03.483477 30642 net.cpp:150] Setting up pool1/3x3_s2
I0919 14:59:03.483492 30642 net.cpp:157] Top shape: 1 64 256 256 (4194304)
I0919 14:59:03.483500 30642 net.cpp:165] Memory required for data: 289406980
I0919 14:59:03.483507 30642 layer_factory.hpp:77] Creating layer conv2/3x3_reduce
I0919 14:59:03.483527 30642 net.cpp:100] Creating Layer conv2/3x3_reduce
I0919 14:59:03.483541 30642 net.cpp:434] conv2/3x3_reduce <- pool1/3x3_s2
I0919 14:59:03.483556 30642 net.cpp:408] conv2/3x3_reduce -> conv2/3x3_reduce
I0919 14:59:03.483927 30642 net.cpp:150] Setting up conv2/3x3_reduce
I0919 14:59:03.483942 30642 net.cpp:157] Top shape: 1 64 256 256 (4194304)
I0919 14:59:03.483948 30642 net.cpp:165] Memory required for data: 306184196
I0919 14:59:03.483960 30642 layer_factory.hpp:77] Creating layer conv2/3x3_reduce/bn
I0919 14:59:03.483973 30642 net.cpp:100] Creating Layer conv2/3x3_reduce/bn
I0919 14:59:03.483979 30642 net.cpp:434] conv2/3x3_reduce/bn <- conv2/3x3_reduce
I0919 14:59:03.483990 30642 net.cpp:408] conv2/3x3_reduce/bn -> conv2/3x3_reduce/bn
I0919 14:59:03.486402 30642 net.cpp:150] Setting up conv2/3x3_reduce/bn
I0919 14:59:03.486423 30642 net.cpp:157] Top shape: 1 64 256 256 (4194304)
I0919 14:59:03.486430 30642 net.cpp:165] Memory required for data: 322961412
I0919 14:59:03.486456 30642 layer_factory.hpp:77] Creating layer conv2/3x3_reduce/bn/sc
I0919 14:59:03.486479 30642 net.cpp:100] Creating Layer conv2/3x3_reduce/bn/sc
I0919 14:59:03.486490 30642 net.cpp:434] conv2/3x3_reduce/bn/sc <- conv2/3x3_reduce/bn
I0919 14:59:03.486501 30642 net.cpp:408] conv2/3x3_reduce/bn/sc -> conv2/3x3_reduce/bn/sc
I0919 14:59:03.486579 30642 layer_factory.hpp:77] Creating layer conv2/3x3_reduce/bn/sc
I0919 14:59:03.486940 30642 net.cpp:150] Setting up conv2/3x3_reduce/bn/sc
I0919 14:59:03.486976 30642 net.cpp:157] Top shape: 1 64 256 256 (4194304)
I0919 14:59:03.486984 30642 net.cpp:165] Memory required for data: 339738628
I0919 14:59:03.486997 30642 layer_factory.hpp:77] Creating layer conv2/3x3_reduce/bn/sc/relu
I0919 14:59:03.487012 30642 net.cpp:100] Creating Layer conv2/3x3_reduce/bn/sc/relu
I0919 14:59:03.487020 30642 net.cpp:434] conv2/3x3_reduce/bn/sc/relu <- conv2/3x3_reduce/bn/sc
I0919 14:59:03.487031 30642 net.cpp:395] conv2/3x3_reduce/bn/sc/relu -> conv2/3x3_reduce/bn/sc (in-place)
I0919 14:59:03.487044 30642 net.cpp:150] Setting up conv2/3x3_reduce/bn/sc/relu
I0919 14:59:03.487057 30642 net.cpp:157] Top shape: 1 64 256 256 (4194304)
I0919 14:59:03.487066 30642 net.cpp:165] Memory required for data: 356515844
I0919 14:59:03.487072 30642 layer_factory.hpp:77] Creating layer conv2/3x3
I0919 14:59:03.487090 30642 net.cpp:100] Creating Layer conv2/3x3
I0919 14:59:03.487102 30642 net.cpp:434] conv2/3x3 <- conv2/3x3_reduce/bn/sc
I0919 14:59:03.487115 30642 net.cpp:408] conv2/3x3 -> conv2/3x3
I0919 14:59:03.488756 30642 net.cpp:150] Setting up conv2/3x3
I0919 14:59:03.488771 30642 net.cpp:157] Top shape: 1 192 256 256 (12582912)
I0919 14:59:03.488780 30642 net.cpp:165] Memory required for data: 406847492
I0919 14:59:03.488788 30642 layer_factory.hpp:77] Creating layer conv2/3x3/bn
I0919 14:59:03.488801 30642 net.cpp:100] Creating Layer conv2/3x3/bn
I0919 14:59:03.488807 30642 net.cpp:434] conv2/3x3/bn <- conv2/3x3
I0919 14:59:03.488819 30642 net.cpp:408] conv2/3x3/bn -> conv2/3x3/bn
I0919 14:59:03.489238 30642 net.cpp:150] Setting up conv2/3x3/bn
I0919 14:59:03.489251 30642 net.cpp:157] Top shape: 1 192 256 256 (12582912)
I0919 14:59:03.489260 30642 net.cpp:165] Memory required for data: 457179140
I0919 14:59:03.489312 30642 layer_factory.hpp:77] Creating layer conv2/3x3/bn/sc
I0919 14:59:03.489325 30642 net.cpp:100] Creating Layer conv2/3x3/bn/sc
I0919 14:59:03.489331 30642 net.cpp:434] conv2/3x3/bn/sc <- conv2/3x3/bn
I0919 14:59:03.489342 30642 net.cpp:408] conv2/3x3/bn/sc -> conv2/3x3/bn/sc
I0919 14:59:03.489409 30642 layer_factory.hpp:77] Creating layer conv2/3x3/bn/sc
I0919 14:59:03.489768 30642 net.cpp:150] Setting up conv2/3x3/bn/sc
I0919 14:59:03.489783 30642 net.cpp:157] Top shape: 1 192 256 256 (12582912)
I0919 14:59:03.489789 30642 net.cpp:165] Memory required for data: 507510788
I0919 14:59:03.489810 30642 layer_factory.hpp:77] Creating layer conv2/3x3/bn/sc/relu
I0919 14:59:03.489825 30642 net.cpp:100] Creating Layer conv2/3x3/bn/sc/relu
I0919 14:59:03.489832 30642 net.cpp:434] conv2/3x3/bn/sc/relu <- conv2/3x3/bn/sc
I0919 14:59:03.489852 30642 net.cpp:395] conv2/3x3/bn/sc/relu -> conv2/3x3/bn/sc (in-place)
I0919 14:59:03.489862 30642 net.cpp:150] Setting up conv2/3x3/bn/sc/relu
I0919 14:59:03.489869 30642 net.cpp:157] Top shape: 1 192 256 256 (12582912)
I0919 14:59:03.489873 30642 net.cpp:165] Memory required for data: 557842436
I0919 14:59:03.489881 30642 layer_factory.hpp:77] Creating layer pool2/3x3_s2
I0919 14:59:03.489890 30642 net.cpp:100] Creating Layer pool2/3x3_s2
I0919 14:59:03.489895 30642 net.cpp:434] pool2/3x3_s2 <- conv2/3x3/bn/sc
I0919 14:59:03.489903 30642 net.cpp:408] pool2/3x3_s2 -> pool2/3x3_s2
I0919 14:59:03.489949 30642 net.cpp:150] Setting up pool2/3x3_s2
I0919 14:59:03.489960 30642 net.cpp:157] Top shape: 1 192 128 128 (3145728)
I0919 14:59:03.489966 30642 net.cpp:165] Memory required for data: 570425348
I0919 14:59:03.489971 30642 layer_factory.hpp:77] Creating layer pool2/3x3_s2_pool2/3x3_s2_0_split
I0919 14:59:03.489982 30642 net.cpp:100] Creating Layer pool2/3x3_s2_pool2/3x3_s2_0_split
I0919 14:59:03.489989 30642 net.cpp:434] pool2/3x3_s2_pool2/3x3_s2_0_split <- pool2/3x3_s2
I0919 14:59:03.489997 30642 net.cpp:408] pool2/3x3_s2_pool2/3x3_s2_0_split -> pool2/3x3_s2_pool2/3x3_s2_0_split_0
I0919 14:59:03.490007 30642 net.cpp:408] pool2/3x3_s2_pool2/3x3_s2_0_split -> pool2/3x3_s2_pool2/3x3_s2_0_split_1
I0919 14:59:03.490016 30642 net.cpp:408] pool2/3x3_s2_pool2/3x3_s2_0_split -> pool2/3x3_s2_pool2/3x3_s2_0_split_2
I0919 14:59:03.490026 30642 net.cpp:408] pool2/3x3_s2_pool2/3x3_s2_0_split -> pool2/3x3_s2_pool2/3x3_s2_0_split_3
I0919 14:59:03.490100 30642 net.cpp:150] Setting up pool2/3x3_s2_pool2/3x3_s2_0_split
I0919 14:59:03.490110 30642 net.cpp:157] Top shape: 1 192 128 128 (3145728)
I0919 14:59:03.490116 30642 net.cpp:157] Top shape: 1 192 128 128 (3145728)
I0919 14:59:03.490124 30642 net.cpp:157] Top shape: 1 192 128 128 (3145728)
I0919 14:59:03.490134 30642 net.cpp:157] Top shape: 1 192 128 128 (3145728)
I0919 14:59:03.490139 30642 net.cpp:165] Memory required for data: 620756996
I0919 14:59:03.490144 30642 layer_factory.hpp:77] Creating layer inception_3a/1x1
I0919 14:59:03.490161 30642 net.cpp:100] Creating Layer inception_3a/1x1
I0919 14:59:03.490167 30642 net.cpp:434] inception_3a/1x1 <- pool2/3x3_s2_pool2/3x3_s2_0_split_0
I0919 14:59:03.490177 30642 net.cpp:408] inception_3a/1x1 -> inception_3a/1x1
I0919 14:59:03.492158 30642 net.cpp:150] Setting up inception_3a/1x1
I0919 14:59:03.492177 30642 net.cpp:157] Top shape: 1 64 128 128 (1048576)
I0919 14:59:03.492185 30642 net.cpp:165] Memory required for data: 624951300
I0919 14:59:03.492194 30642 layer_factory.hpp:77] Creating layer inception_3a/1x1/bn
I0919 14:59:03.492204 30642 net.cpp:100] Creating Layer inception_3a/1x1/bn
I0919 14:59:03.492211 30642 net.cpp:434] inception_3a/1x1/bn <- inception_3a/1x1
I0919 14:59:03.492223 30642 net.cpp:408] inception_3a/1x1/bn -> inception_3a/1x1/bn
I0919 14:59:03.492476 30642 net.cpp:150] Setting up inception_3a/1x1/bn
I0919 14:59:03.492486 30642 net.cpp:157] Top shape: 1 64 128 128 (1048576)
I0919 14:59:03.492492 30642 net.cpp:165] Memory required for data: 629145604
I0919 14:59:03.492502 30642 layer_factory.hpp:77] Creating layer inception_3a/1x1/bn/sc
I0919 14:59:03.492532 30642 net.cpp:100] Creating Layer inception_3a/1x1/bn/sc
I0919 14:59:03.492538 30642 net.cpp:434] inception_3a/1x1/bn/sc <- inception_3a/1x1/bn
I0919 14:59:03.492548 30642 net.cpp:408] inception_3a/1x1/bn/sc -> inception_3a/1x1/bn/sc
I0919 14:59:03.492594 30642 layer_factory.hpp:77] Creating layer inception_3a/1x1/bn/sc
I0919 14:59:03.492763 30642 net.cpp:150] Setting up inception_3a/1x1/bn/sc
I0919 14:59:03.492775 30642 net.cpp:157] Top shape: 1 64 128 128 (1048576)
I0919 14:59:03.492782 30642 net.cpp:165] Memory required for data: 633339908
I0919 14:59:03.492791 30642 layer_factory.hpp:77] Creating layer inception_3a/1x1/bn/sc/relu
I0919 14:59:03.492801 30642 net.cpp:100] Creating Layer inception_3a/1x1/bn/sc/relu
I0919 14:59:03.492806 30642 net.cpp:434] inception_3a/1x1/bn/sc/relu <- inception_3a/1x1/bn/sc
I0919 14:59:03.492815 30642 net.cpp:395] inception_3a/1x1/bn/sc/relu -> inception_3a/1x1/bn/sc (in-place)
I0919 14:59:03.492823 30642 net.cpp:150] Setting up inception_3a/1x1/bn/sc/relu
I0919 14:59:03.492830 30642 net.cpp:157] Top shape: 1 64 128 128 (1048576)
I0919 14:59:03.492835 30642 net.cpp:165] Memory required for data: 637534212
I0919 14:59:03.492841 30642 layer_factory.hpp:77] Creating layer inception_3a/3x3_reduce
I0919 14:59:03.492851 30642 net.cpp:100] Creating Layer inception_3a/3x3_reduce
I0919 14:59:03.492857 30642 net.cpp:434] inception_3a/3x3_reduce <- pool2/3x3_s2_pool2/3x3_s2_0_split_1
I0919 14:59:03.492867 30642 net.cpp:408] inception_3a/3x3_reduce -> inception_3a/3x3_reduce
I0919 14:59:03.493191 30642 net.cpp:150] Setting up inception_3a/3x3_reduce
I0919 14:59:03.493201 30642 net.cpp:157] Top shape: 1 64 128 128 (1048576)
I0919 14:59:03.493206 30642 net.cpp:165] Memory required for data: 641728516
I0919 14:59:03.493212 30642 layer_factory.hpp:77] Creating layer inception_3a/3x3_reduce/bn
I0919 14:59:03.493221 30642 net.cpp:100] Creating Layer inception_3a/3x3_reduce/bn
I0919 14:59:03.493227 30642 net.cpp:434] inception_3a/3x3_reduce/bn <- inception_3a/3x3_reduce
I0919 14:59:03.493234 30642 net.cpp:408] inception_3a/3x3_reduce/bn -> inception_3a/3x3_reduce/bn
I0919 14:59:03.493484 30642 net.cpp:150] Setting up inception_3a/3x3_reduce/bn
I0919 14:59:03.493494 30642 net.cpp:157] Top shape: 1 64 128 128 (1048576)
I0919 14:59:03.493499 30642 net.cpp:165] Memory required for data: 645922820
I0919 14:59:03.493510 30642 layer_factory.hpp:77] Creating layer inception_3a/3x3_reduce/bn/sc
I0919 14:59:03.493518 30642 net.cpp:100] Creating Layer inception_3a/3x3_reduce/bn/sc
I0919 14:59:03.493525 30642 net.cpp:434] inception_3a/3x3_reduce/bn/sc <- inception_3a/3x3_reduce/bn
I0919 14:59:03.493533 30642 net.cpp:408] inception_3a/3x3_reduce/bn/sc -> inception_3a/3x3_reduce/bn/sc
I0919 14:59:03.493578 30642 layer_factory.hpp:77] Creating layer inception_3a/3x3_reduce/bn/sc
I0919 14:59:03.493736 30642 net.cpp:150] Setting up inception_3a/3x3_reduce/bn/sc
I0919 14:59:03.493747 30642 net.cpp:157] Top shape: 1 64 128 128 (1048576)
I0919 14:59:03.493754 30642 net.cpp:165] Memory required for data: 650117124
I0919 14:59:03.493762 30642 layer_factory.hpp:77] Creating layer inception_3a/3x3_reduce/bn/sc/relu
I0919 14:59:03.493772 30642 net.cpp:100] Creating Layer inception_3a/3x3_reduce/bn/sc/relu
I0919 14:59:03.493777 30642 net.cpp:434] inception_3a/3x3_reduce/bn/sc/relu <- inception_3a/3x3_reduce/bn/sc
I0919 14:59:03.493785 30642 net.cpp:395] inception_3a/3x3_reduce/bn/sc/relu -> inception_3a/3x3_reduce/bn/sc (in-place)
I0919 14:59:03.493794 30642 net.cpp:150] Setting up inception_3a/3x3_reduce/bn/sc/relu
I0919 14:59:03.493801 30642 net.cpp:157] Top shape: 1 64 128 128 (1048576)
I0919 14:59:03.493806 30642 net.cpp:165] Memory required for data: 654311428
I0919 14:59:03.493811 30642 layer_factory.hpp:77] Creating layer inception_3a/3x3
I0919 14:59:03.493821 30642 net.cpp:100] Creating Layer inception_3a/3x3
I0919 14:59:03.493826 30642 net.cpp:434] inception_3a/3x3 <- inception_3a/3x3_reduce/bn/sc
I0919 14:59:03.493837 30642 net.cpp:408] inception_3a/3x3 -> inception_3a/3x3
I0919 14:59:03.494367 30642 net.cpp:150] Setting up inception_3a/3x3
I0919 14:59:03.494391 30642 net.cpp:157] Top shape: 1 64 128 128 (1048576)
I0919 14:59:03.494397 30642 net.cpp:165] Memory required for data: 658505732
I0919 14:59:03.494406 30642 layer_factory.hpp:77] Creating layer inception_3a/3x3/bn
I0919 14:59:03.494413 30642 net.cpp:100] Creating Layer inception_3a/3x3/bn
I0919 14:59:03.494419 30642 net.cpp:434] inception_3a/3x3/bn <- inception_3a/3x3
I0919 14:59:03.494427 30642 net.cpp:408] inception_3a/3x3/bn -> inception_3a/3x3/bn
I0919 14:59:03.494686 30642 net.cpp:150] Setting up inception_3a/3x3/bn
I0919 14:59:03.494696 30642 net.cpp:157] Top shape: 1 64 128 128 (1048576)
I0919 14:59:03.494701 30642 net.cpp:165] Memory required for data: 662700036
I0919 14:59:03.494719 30642 layer_factory.hpp:77] Creating layer inception_3a/3x3/bn/sc
I0919 14:59:03.494727 30642 net.cpp:100] Creating Layer inception_3a/3x3/bn/sc
I0919 14:59:03.494734 30642 net.cpp:434] inception_3a/3x3/bn/sc <- inception_3a/3x3/bn
I0919 14:59:03.494742 30642 net.cpp:408] inception_3a/3x3/bn/sc -> inception_3a/3x3/bn/sc
I0919 14:59:03.494791 30642 layer_factory.hpp:77] Creating layer inception_3a/3x3/bn/sc
I0919 14:59:03.494966 30642 net.cpp:150] Setting up inception_3a/3x3/bn/sc
I0919 14:59:03.494976 30642 net.cpp:157] Top shape: 1 64 128 128 (1048576)
I0919 14:59:03.494983 30642 net.cpp:165] Memory required for data: 666894340
I0919 14:59:03.494992 30642 layer_factory.hpp:77] Creating layer inception_3a/3x3/bn/sc/relu
I0919 14:59:03.495000 30642 net.cpp:100] Creating Layer inception_3a/3x3/bn/sc/relu
I0919 14:59:03.495007 30642 net.cpp:434] inception_3a/3x3/bn/sc/relu <- inception_3a/3x3/bn/sc
I0919 14:59:03.495015 30642 net.cpp:395] inception_3a/3x3/bn/sc/relu -> inception_3a/3x3/bn/sc (in-place)
I0919 14:59:03.495023 30642 net.cpp:150] Setting up inception_3a/3x3/bn/sc/relu
I0919 14:59:03.495031 30642 net.cpp:157] Top shape: 1 64 128 128 (1048576)
I0919 14:59:03.495036 30642 net.cpp:165] Memory required for data: 671088644
I0919 14:59:03.495041 30642 layer_factory.hpp:77] Creating layer inception_3a/double3x3_reduce
I0919 14:59:03.495054 30642 net.cpp:100] Creating Layer inception_3a/double3x3_reduce
I0919 14:59:03.495060 30642 net.cpp:434] inception_3a/double3x3_reduce <- pool2/3x3_s2_pool2/3x3_s2_0_split_2
I0919 14:59:03.495069 30642 net.cpp:408] inception_3a/double3x3_reduce -> inception_3a/double3x3_reduce
I0919 14:59:03.495391 30642 net.cpp:150] Setting up inception_3a/double3x3_reduce
I0919 14:59:03.495401 30642 net.cpp:157] Top shape: 1 64 128 128 (1048576)
I0919 14:59:03.495407 30642 net.cpp:165] Memory required for data: 675282948
I0919 14:59:03.495414 30642 layer_factory.hpp:77] Creating layer inception_3a/double3x3_reduce/bn
I0919 14:59:03.495422 30642 net.cpp:100] Creating Layer inception_3a/double3x3_reduce/bn
I0919 14:59:03.495427 30642 net.cpp:434] inception_3a/double3x3_reduce/bn <- inception_3a/double3x3_reduce
I0919 14:59:03.495436 30642 net.cpp:408] inception_3a/double3x3_reduce/bn -> inception_3a/double3x3_reduce/bn
I0919 14:59:03.495712 30642 net.cpp:150] Setting up inception_3a/double3x3_reduce/bn
I0919 14:59:03.495721 30642 net.cpp:157] Top shape: 1 64 128 128 (1048576)
I0919 14:59:03.495725 30642 net.cpp:165] Memory required for data: 679477252
I0919 14:59:03.495738 30642 layer_factory.hpp:77] Creating layer inception_3a/double3x3_reduce/bn/sc
I0919 14:59:03.495745 30642 net.cpp:100] Creating Layer inception_3a/double3x3_reduce/bn/sc
I0919 14:59:03.495750 30642 net.cpp:434] inception_3a/double3x3_reduce/bn/sc <- inception_3a/double3x3_reduce/bn
I0919 14:59:03.495759 30642 net.cpp:408] inception_3a/double3x3_reduce/bn/sc -> inception_3a/double3x3_reduce/bn/sc
I0919 14:59:03.495805 30642 layer_factory.hpp:77] Creating layer inception_3a/double3x3_reduce/bn/sc
I0919 14:59:03.495966 30642 net.cpp:150] Setting up inception_3a/double3x3_reduce/bn/sc
I0919 14:59:03.495977 30642 net.cpp:157] Top shape: 1 64 128 128 (1048576)
I0919 14:59:03.495985 30642 net.cpp:165] Memory required for data: 683671556
I0919 14:59:03.495993 30642 layer_factory.hpp:77] Creating layer inception_3a/double3x3_reduce/bn/sc/relu
I0919 14:59:03.496017 30642 net.cpp:100] Creating Layer inception_3a/double3x3_reduce/bn/sc/relu
I0919 14:59:03.496022 30642 net.cpp:434] inception_3a/double3x3_reduce/bn/sc/relu <- inception_3a/double3x3_reduce/bn/sc
I0919 14:59:03.496031 30642 net.cpp:395] inception_3a/double3x3_reduce/bn/sc/relu -> inception_3a/double3x3_reduce/bn/sc (in-place)
I0919 14:59:03.496042 30642 net.cpp:150] Setting up inception_3a/double3x3_reduce/bn/sc/relu
I0919 14:59:03.496048 30642 net.cpp:157] Top shape: 1 64 128 128 (1048576)
I0919 14:59:03.496053 30642 net.cpp:165] Memory required for data: 687865860
I0919 14:59:03.496058 30642 layer_factory.hpp:77] Creating layer inception_3a/double3x3a
I0919 14:59:03.496079 30642 net.cpp:100] Creating Layer inception_3a/double3x3a
I0919 14:59:03.496088 30642 net.cpp:434] inception_3a/double3x3a <- inception_3a/double3x3_reduce/bn/sc
I0919 14:59:03.496098 30642 net.cpp:408] inception_3a/double3x3a -> inception_3a/double3x3a
I0919 14:59:03.496809 30642 net.cpp:150] Setting up inception_3a/double3x3a
I0919 14:59:03.496819 30642 net.cpp:157] Top shape: 1 96 128 128 (1572864)
I0919 14:59:03.496824 30642 net.cpp:165] Memory required for data: 694157316
I0919 14:59:03.496831 30642 layer_factory.hpp:77] Creating layer inception_3a/double3x3a/bn
I0919 14:59:03.496840 30642 net.cpp:100] Creating Layer inception_3a/double3x3a/bn
I0919 14:59:03.496845 30642 net.cpp:434] inception_3a/double3x3a/bn <- inception_3a/double3x3a
I0919 14:59:03.496853 30642 net.cpp:408] inception_3a/double3x3a/bn -> inception_3a/double3x3a/bn
I0919 14:59:03.497124 30642 net.cpp:150] Setting up inception_3a/double3x3a/bn
I0919 14:59:03.497134 30642 net.cpp:157] Top shape: 1 96 128 128 (1572864)
I0919 14:59:03.497139 30642 net.cpp:165] Memory required for data: 700448772
I0919 14:59:03.497150 30642 layer_factory.hpp:77] Creating layer inception_3a/double3x3a/bn/sc
I0919 14:59:03.497157 30642 net.cpp:100] Creating Layer inception_3a/double3x3a/bn/sc
I0919 14:59:03.497162 30642 net.cpp:434] inception_3a/double3x3a/bn/sc <- inception_3a/double3x3a/bn
I0919 14:59:03.497172 30642 net.cpp:408] inception_3a/double3x3a/bn/sc -> inception_3a/double3x3a/bn/sc
I0919 14:59:03.497217 30642 layer_factory.hpp:77] Creating layer inception_3a/double3x3a/bn/sc
I0919 14:59:03.497386 30642 net.cpp:150] Setting up inception_3a/double3x3a/bn/sc
I0919 14:59:03.497397 30642 net.cpp:157] Top shape: 1 96 128 128 (1572864)
I0919 14:59:03.497403 30642 net.cpp:165] Memory required for data: 706740228
I0919 14:59:03.497411 30642 layer_factory.hpp:77] Creating layer inception_3a/double3x3a/bn/sc/relu
I0919 14:59:03.497419 30642 net.cpp:100] Creating Layer inception_3a/double3x3a/bn/sc/relu
I0919 14:59:03.497424 30642 net.cpp:434] inception_3a/double3x3a/bn/sc/relu <- inception_3a/double3x3a/bn/sc
I0919 14:59:03.497436 30642 net.cpp:395] inception_3a/double3x3a/bn/sc/relu -> inception_3a/double3x3a/bn/sc (in-place)
I0919 14:59:03.497443 30642 net.cpp:150] Setting up inception_3a/double3x3a/bn/sc/relu
I0919 14:59:03.497449 30642 net.cpp:157] Top shape: 1 96 128 128 (1572864)
I0919 14:59:03.497454 30642 net.cpp:165] Memory required for data: 713031684
I0919 14:59:03.497460 30642 layer_factory.hpp:77] Creating layer inception_3a/double3x3b
I0919 14:59:03.497469 30642 net.cpp:100] Creating Layer inception_3a/double3x3b
I0919 14:59:03.497474 30642 net.cpp:434] inception_3a/double3x3b <- inception_3a/double3x3a/bn/sc
I0919 14:59:03.497483 30642 net.cpp:408] inception_3a/double3x3b -> inception_3a/double3x3b
I0919 14:59:03.498442 30642 net.cpp:150] Setting up inception_3a/double3x3b
I0919 14:59:03.498456 30642 net.cpp:157] Top shape: 1 96 128 128 (1572864)
I0919 14:59:03.498461 30642 net.cpp:165] Memory required for data: 719323140
I0919 14:59:03.498468 30642 layer_factory.hpp:77] Creating layer inception_3a/double3x3b/bn
I0919 14:59:03.498477 30642 net.cpp:100] Creating Layer inception_3a/double3x3b/bn
I0919 14:59:03.498483 30642 net.cpp:434] inception_3a/double3x3b/bn <- inception_3a/double3x3b
I0919 14:59:03.498492 30642 net.cpp:408] inception_3a/double3x3b/bn -> inception_3a/double3x3b/bn
I0919 14:59:03.498778 30642 net.cpp:150] Setting up inception_3a/double3x3b/bn
I0919 14:59:03.498790 30642 net.cpp:157] Top shape: 1 96 128 128 (1572864)
I0919 14:59:03.498795 30642 net.cpp:165] Memory required for data: 725614596
I0919 14:59:03.498806 30642 layer_factory.hpp:77] Creating layer inception_3a/double3x3b/bn/sc
I0919 14:59:03.498814 30642 net.cpp:100] Creating Layer inception_3a/double3x3b/bn/sc
I0919 14:59:03.498821 30642 net.cpp:434] inception_3a/double3x3b/bn/sc <- inception_3a/double3x3b/bn
I0919 14:59:03.498828 30642 net.cpp:408] inception_3a/double3x3b/bn/sc -> inception_3a/double3x3b/bn/sc
I0919 14:59:03.498872 30642 layer_factory.hpp:77] Creating layer inception_3a/double3x3b/bn/sc
I0919 14:59:03.499053 30642 net.cpp:150] Setting up inception_3a/double3x3b/bn/sc
I0919 14:59:03.499065 30642 net.cpp:157] Top shape: 1 96 128 128 (1572864)
I0919 14:59:03.499070 30642 net.cpp:165] Memory required for data: 731906052
I0919 14:59:03.499078 30642 layer_factory.hpp:77] Creating layer inception_3a/double3x3b/bn/sc/relu
I0919 14:59:03.499086 30642 net.cpp:100] Creating Layer inception_3a/double3x3b/bn/sc/relu
I0919 14:59:03.499092 30642 net.cpp:434] inception_3a/double3x3b/bn/sc/relu <- inception_3a/double3x3b/bn/sc
I0919 14:59:03.499099 30642 net.cpp:395] inception_3a/double3x3b/bn/sc/relu -> inception_3a/double3x3b/bn/sc (in-place)
I0919 14:59:03.499109 30642 net.cpp:150] Setting up inception_3a/double3x3b/bn/sc/relu
I0919 14:59:03.499114 30642 net.cpp:157] Top shape: 1 96 128 128 (1572864)
I0919 14:59:03.499120 30642 net.cpp:165] Memory required for data: 738197508
I0919 14:59:03.499125 30642 layer_factory.hpp:77] Creating layer inception_3a/pool
I0919 14:59:03.499136 30642 net.cpp:100] Creating Layer inception_3a/pool
I0919 14:59:03.499141 30642 net.cpp:434] inception_3a/pool <- pool2/3x3_s2_pool2/3x3_s2_0_split_3
I0919 14:59:03.499150 30642 net.cpp:408] inception_3a/pool -> inception_3a/pool
I0919 14:59:03.499181 30642 net.cpp:150] Setting up inception_3a/pool
I0919 14:59:03.499191 30642 net.cpp:157] Top shape: 1 192 128 128 (3145728)
I0919 14:59:03.499197 30642 net.cpp:165] Memory required for data: 750780420
I0919 14:59:03.499202 30642 layer_factory.hpp:77] Creating layer inception_3a/pool_proj
I0919 14:59:03.499215 30642 net.cpp:100] Creating Layer inception_3a/pool_proj
I0919 14:59:03.499222 30642 net.cpp:434] inception_3a/pool_proj <- inception_3a/pool
I0919 14:59:03.499230 30642 net.cpp:408] inception_3a/pool_proj -> inception_3a/pool_proj
I0919 14:59:03.499511 30642 net.cpp:150] Setting up inception_3a/pool_proj
I0919 14:59:03.499521 30642 net.cpp:157] Top shape: 1 32 128 128 (524288)
I0919 14:59:03.499526 30642 net.cpp:165] Memory required for data: 752877572
I0919 14:59:03.499532 30642 layer_factory.hpp:77] Creating layer inception_3a/pool_proj/bn
I0919 14:59:03.499541 30642 net.cpp:100] Creating Layer inception_3a/pool_proj/bn
I0919 14:59:03.499545 30642 net.cpp:434] inception_3a/pool_proj/bn <- inception_3a/pool_proj
I0919 14:59:03.499555 30642 net.cpp:408] inception_3a/pool_proj/bn -> inception_3a/pool_proj/bn
I0919 14:59:03.499822 30642 net.cpp:150] Setting up inception_3a/pool_proj/bn
I0919 14:59:03.499833 30642 net.cpp:157] Top shape: 1 32 128 128 (524288)
I0919 14:59:03.499850 30642 net.cpp:165] Memory required for data: 754974724
I0919 14:59:03.499856 30642 layer_factory.hpp:77] Creating layer inception_3a/pool_proj/bn/sc
I0919 14:59:03.499863 30642 net.cpp:100] Creating Layer inception_3a/pool_proj/bn/sc
I0919 14:59:03.499867 30642 net.cpp:434] inception_3a/pool_proj/bn/sc <- inception_3a/pool_proj/bn
I0919 14:59:03.499873 30642 net.cpp:408] inception_3a/pool_proj/bn/sc -> inception_3a/pool_proj/bn/sc
I0919 14:59:03.499902 30642 layer_factory.hpp:77] Creating layer inception_3a/pool_proj/bn/sc
I0919 14:59:03.500020 30642 net.cpp:150] Setting up inception_3a/pool_proj/bn/sc
I0919 14:59:03.500028 30642 net.cpp:157] Top shape: 1 32 128 128 (524288)
I0919 14:59:03.500031 30642 net.cpp:165] Memory required for data: 757071876
I0919 14:59:03.500048 30642 layer_factory.hpp:77] Creating layer inception_3a/pool_proj/bn/sc/relu
I0919 14:59:03.500054 30642 net.cpp:100] Creating Layer inception_3a/pool_proj/bn/sc/relu
I0919 14:59:03.500059 30642 net.cpp:434] inception_3a/pool_proj/bn/sc/relu <- inception_3a/pool_proj/bn/sc
I0919 14:59:03.500066 30642 net.cpp:395] inception_3a/pool_proj/bn/sc/relu -> inception_3a/pool_proj/bn/sc (in-place)
I0919 14:59:03.500072 30642 net.cpp:150] Setting up inception_3a/pool_proj/bn/sc/relu
I0919 14:59:03.500077 30642 net.cpp:157] Top shape: 1 32 128 128 (524288)
I0919 14:59:03.500080 30642 net.cpp:165] Memory required for data: 759169028
I0919 14:59:03.500083 30642 layer_factory.hpp:77] Creating layer inception_3a/output
I0919 14:59:03.500092 30642 net.cpp:100] Creating Layer inception_3a/output
I0919 14:59:03.500095 30642 net.cpp:434] inception_3a/output <- inception_3a/1x1/bn/sc
I0919 14:59:03.500100 30642 net.cpp:434] inception_3a/output <- inception_3a/3x3/bn/sc
I0919 14:59:03.500105 30642 net.cpp:434] inception_3a/output <- inception_3a/double3x3b/bn/sc
I0919 14:59:03.500109 30642 net.cpp:434] inception_3a/output <- inception_3a/pool_proj/bn/sc
I0919 14:59:03.500115 30642 net.cpp:408] inception_3a/output -> inception_3a/output
I0919 14:59:03.500138 30642 net.cpp:150] Setting up inception_3a/output
I0919 14:59:03.500144 30642 net.cpp:157] Top shape: 1 256 128 128 (4194304)
I0919 14:59:03.500146 30642 net.cpp:165] Memory required for data: 775946244
I0919 14:59:03.500149 30642 layer_factory.hpp:77] Creating layer inception_3a/output_inception_3a/output_0_split
I0919 14:59:03.500156 30642 net.cpp:100] Creating Layer inception_3a/output_inception_3a/output_0_split
I0919 14:59:03.500159 30642 net.cpp:434] inception_3a/output_inception_3a/output_0_split <- inception_3a/output
I0919 14:59:03.500165 30642 net.cpp:408] inception_3a/output_inception_3a/output_0_split -> inception_3a/output_inception_3a/output_0_split_0
I0919 14:59:03.500172 30642 net.cpp:408] inception_3a/output_inception_3a/output_0_split -> inception_3a/output_inception_3a/output_0_split_1
I0919 14:59:03.500180 30642 net.cpp:408] inception_3a/output_inception_3a/output_0_split -> inception_3a/output_inception_3a/output_0_split_2
I0919 14:59:03.500186 30642 net.cpp:408] inception_3a/output_inception_3a/output_0_split -> inception_3a/output_inception_3a/output_0_split_3
I0919 14:59:03.500234 30642 net.cpp:150] Setting up inception_3a/output_inception_3a/output_0_split
I0919 14:59:03.500241 30642 net.cpp:157] Top shape: 1 256 128 128 (4194304)
I0919 14:59:03.500247 30642 net.cpp:157] Top shape: 1 256 128 128 (4194304)
I0919 14:59:03.500250 30642 net.cpp:157] Top shape: 1 256 128 128 (4194304)
I0919 14:59:03.500254 30642 net.cpp:157] Top shape: 1 256 128 128 (4194304)
I0919 14:59:03.500257 30642 net.cpp:165] Memory required for data: 843055108
I0919 14:59:03.500262 30642 layer_factory.hpp:77] Creating layer inception_3b/1x1
I0919 14:59:03.500272 30642 net.cpp:100] Creating Layer inception_3b/1x1
I0919 14:59:03.500274 30642 net.cpp:434] inception_3b/1x1 <- inception_3a/output_inception_3a/output_0_split_0
I0919 14:59:03.500280 30642 net.cpp:408] inception_3b/1x1 -> inception_3b/1x1
I0919 14:59:03.500522 30642 net.cpp:150] Setting up inception_3b/1x1
I0919 14:59:03.500530 30642 net.cpp:157] Top shape: 1 64 128 128 (1048576)
I0919 14:59:03.500533 30642 net.cpp:165] Memory required for data: 847249412
I0919 14:59:03.500538 30642 layer_factory.hpp:77] Creating layer inception_3b/1x1/bn
I0919 14:59:03.500543 30642 net.cpp:100] Creating Layer inception_3b/1x1/bn
I0919 14:59:03.500547 30642 net.cpp:434] inception_3b/1x1/bn <- inception_3b/1x1
I0919 14:59:03.500552 30642 net.cpp:408] inception_3b/1x1/bn -> inception_3b/1x1/bn
I0919 14:59:03.500741 30642 net.cpp:150] Setting up inception_3b/1x1/bn
I0919 14:59:03.500748 30642 net.cpp:157] Top shape: 1 64 128 128 (1048576)
I0919 14:59:03.500751 30642 net.cpp:165] Memory required for data: 851443716
I0919 14:59:03.500758 30642 layer_factory.hpp:77] Creating layer inception_3b/1x1/bn/sc
I0919 14:59:03.500763 30642 net.cpp:100] Creating Layer inception_3b/1x1/bn/sc
I0919 14:59:03.500777 30642 net.cpp:434] inception_3b/1x1/bn/sc <- inception_3b/1x1/bn
I0919 14:59:03.500782 30642 net.cpp:408] inception_3b/1x1/bn/sc -> inception_3b/1x1/bn/sc
I0919 14:59:03.500814 30642 layer_factory.hpp:77] Creating layer inception_3b/1x1/bn/sc
I0919 14:59:03.500934 30642 net.cpp:150] Setting up inception_3b/1x1/bn/sc
I0919 14:59:03.500943 30642 net.cpp:157] Top shape: 1 64 128 128 (1048576)
I0919 14:59:03.500947 30642 net.cpp:165] Memory required for data: 855638020
I0919 14:59:03.500962 30642 layer_factory.hpp:77] Creating layer inception_3b/1x1/bn/sc/relu
I0919 14:59:03.500970 30642 net.cpp:100] Creating Layer inception_3b/1x1/bn/sc/relu
I0919 14:59:03.500974 30642 net.cpp:434] inception_3b/1x1/bn/sc/relu <- inception_3b/1x1/bn/sc
I0919 14:59:03.500982 30642 net.cpp:395] inception_3b/1x1/bn/sc/relu -> inception_3b/1x1/bn/sc (in-place)
I0919 14:59:03.500988 30642 net.cpp:150] Setting up inception_3b/1x1/bn/sc/relu
I0919 14:59:03.500991 30642 net.cpp:157] Top shape: 1 64 128 128 (1048576)
I0919 14:59:03.500995 30642 net.cpp:165] Memory required for data: 859832324
I0919 14:59:03.500998 30642 layer_factory.hpp:77] Creating layer inception_3b/3x3_reduce
I0919 14:59:03.501006 30642 net.cpp:100] Creating Layer inception_3b/3x3_reduce
I0919 14:59:03.501010 30642 net.cpp:434] inception_3b/3x3_reduce <- inception_3a/output_inception_3a/output_0_split_1
I0919 14:59:03.501018 30642 net.cpp:408] inception_3b/3x3_reduce -> inception_3b/3x3_reduce
I0919 14:59:03.501255 30642 net.cpp:150] Setting up inception_3b/3x3_reduce
I0919 14:59:03.501262 30642 net.cpp:157] Top shape: 1 64 128 128 (1048576)
I0919 14:59:03.501267 30642 net.cpp:165] Memory required for data: 864026628
I0919 14:59:03.501272 30642 layer_factory.hpp:77] Creating layer inception_3b/3x3_reduce/bn
I0919 14:59:03.501277 30642 net.cpp:100] Creating Layer inception_3b/3x3_reduce/bn
I0919 14:59:03.501281 30642 net.cpp:434] inception_3b/3x3_reduce/bn <- inception_3b/3x3_reduce
I0919 14:59:03.501286 30642 net.cpp:408] inception_3b/3x3_reduce/bn -> inception_3b/3x3_reduce/bn
I0919 14:59:03.501466 30642 net.cpp:150] Setting up inception_3b/3x3_reduce/bn
I0919 14:59:03.501473 30642 net.cpp:157] Top shape: 1 64 128 128 (1048576)
I0919 14:59:03.501477 30642 net.cpp:165] Memory required for data: 868220932
I0919 14:59:03.501483 30642 layer_factory.hpp:77] Creating layer inception_3b/3x3_reduce/bn/sc
I0919 14:59:03.501490 30642 net.cpp:100] Creating Layer inception_3b/3x3_reduce/bn/sc
I0919 14:59:03.501493 30642 net.cpp:434] inception_3b/3x3_reduce/bn/sc <- inception_3b/3x3_reduce/bn
I0919 14:59:03.501499 30642 net.cpp:408] inception_3b/3x3_reduce/bn/sc -> inception_3b/3x3_reduce/bn/sc
I0919 14:59:03.501533 30642 layer_factory.hpp:77] Creating layer inception_3b/3x3_reduce/bn/sc
I0919 14:59:03.501667 30642 net.cpp:150] Setting up inception_3b/3x3_reduce/bn/sc
I0919 14:59:03.501674 30642 net.cpp:157] Top shape: 1 64 128 128 (1048576)
I0919 14:59:03.501678 30642 net.cpp:165] Memory required for data: 872415236
I0919 14:59:03.501684 30642 layer_factory.hpp:77] Creating layer inception_3b/3x3_reduce/bn/sc/relu
I0919 14:59:03.501690 30642 net.cpp:100] Creating Layer inception_3b/3x3_reduce/bn/sc/relu
I0919 14:59:03.501694 30642 net.cpp:434] inception_3b/3x3_reduce/bn/sc/relu <- inception_3b/3x3_reduce/bn/sc
I0919 14:59:03.501699 30642 net.cpp:395] inception_3b/3x3_reduce/bn/sc/relu -> inception_3b/3x3_reduce/bn/sc (in-place)
I0919 14:59:03.501708 30642 net.cpp:150] Setting up inception_3b/3x3_reduce/bn/sc/relu
I0919 14:59:03.501714 30642 net.cpp:157] Top shape: 1 64 128 128 (1048576)
I0919 14:59:03.501718 30642 net.cpp:165] Memory required for data: 876609540
I0919 14:59:03.501720 30642 layer_factory.hpp:77] Creating layer inception_3b/3x3
I0919 14:59:03.501727 30642 net.cpp:100] Creating Layer inception_3b/3x3
I0919 14:59:03.501731 30642 net.cpp:434] inception_3b/3x3 <- inception_3b/3x3_reduce/bn/sc
I0919 14:59:03.501739 30642 net.cpp:408] inception_3b/3x3 -> inception_3b/3x3
I0919 14:59:03.503744 30642 net.cpp:150] Setting up inception_3b/3x3
I0919 14:59:03.503772 30642 net.cpp:157] Top shape: 1 96 128 128 (1572864)
I0919 14:59:03.503777 30642 net.cpp:165] Memory required for data: 882900996
I0919 14:59:03.503787 30642 layer_factory.hpp:77] Creating layer inception_3b/3x3/bn
I0919 14:59:03.503794 30642 net.cpp:100] Creating Layer inception_3b/3x3/bn
I0919 14:59:03.503799 30642 net.cpp:434] inception_3b/3x3/bn <- inception_3b/3x3
I0919 14:59:03.503808 30642 net.cpp:408] inception_3b/3x3/bn -> inception_3b/3x3/bn
I0919 14:59:03.505331 30642 net.cpp:150] Setting up inception_3b/3x3/bn
I0919 14:59:03.505345 30642 net.cpp:157] Top shape: 1 96 128 128 (1572864)
I0919 14:59:03.505348 30642 net.cpp:165] Memory required for data: 889192452
I0919 14:59:03.505358 30642 layer_factory.hpp:77] Creating layer inception_3b/3x3/bn/sc
I0919 14:59:03.505369 30642 net.cpp:100] Creating Layer inception_3b/3x3/bn/sc
I0919 14:59:03.505373 30642 net.cpp:434] inception_3b/3x3/bn/sc <- inception_3b/3x3/bn
I0919 14:59:03.505380 30642 net.cpp:408] inception_3b/3x3/bn/sc -> inception_3b/3x3/bn/sc
I0919 14:59:03.505420 30642 layer_factory.hpp:77] Creating layer inception_3b/3x3/bn/sc
I0919 14:59:03.505547 30642 net.cpp:150] Setting up inception_3b/3x3/bn/sc
I0919 14:59:03.505558 30642 net.cpp:157] Top shape: 1 96 128 128 (1572864)
I0919 14:59:03.505560 30642 net.cpp:165] Memory required for data: 895483908
I0919 14:59:03.505568 30642 layer_factory.hpp:77] Creating layer inception_3b/3x3/bn/sc/relu
I0919 14:59:03.505573 30642 net.cpp:100] Creating Layer inception_3b/3x3/bn/sc/relu
I0919 14:59:03.505576 30642 net.cpp:434] inception_3b/3x3/bn/sc/relu <- inception_3b/3x3/bn/sc
I0919 14:59:03.505581 30642 net.cpp:395] inception_3b/3x3/bn/sc/relu -> inception_3b/3x3/bn/sc (in-place)
I0919 14:59:03.505589 30642 net.cpp:150] Setting up inception_3b/3x3/bn/sc/relu
I0919 14:59:03.505592 30642 net.cpp:157] Top shape: 1 96 128 128 (1572864)
I0919 14:59:03.505595 30642 net.cpp:165] Memory required for data: 901775364
I0919 14:59:03.505599 30642 layer_factory.hpp:77] Creating layer inception_3b/double3x3_reduce
I0919 14:59:03.505609 30642 net.cpp:100] Creating Layer inception_3b/double3x3_reduce
I0919 14:59:03.505615 30642 net.cpp:434] inception_3b/double3x3_reduce <- inception_3a/output_inception_3a/output_0_split_2
I0919 14:59:03.505623 30642 net.cpp:408] inception_3b/double3x3_reduce -> inception_3b/double3x3_reduce
I0919 14:59:03.505874 30642 net.cpp:150] Setting up inception_3b/double3x3_reduce
I0919 14:59:03.505883 30642 net.cpp:157] Top shape: 1 64 128 128 (1048576)
I0919 14:59:03.505887 30642 net.cpp:165] Memory required for data: 905969668
I0919 14:59:03.505892 30642 layer_factory.hpp:77] Creating layer inception_3b/double3x3_reduce/bn
I0919 14:59:03.505897 30642 net.cpp:100] Creating Layer inception_3b/double3x3_reduce/bn
I0919 14:59:03.505900 30642 net.cpp:434] inception_3b/double3x3_reduce/bn <- inception_3b/double3x3_reduce
I0919 14:59:03.505905 30642 net.cpp:408] inception_3b/double3x3_reduce/bn -> inception_3b/double3x3_reduce/bn
I0919 14:59:03.506100 30642 net.cpp:150] Setting up inception_3b/double3x3_reduce/bn
I0919 14:59:03.506108 30642 net.cpp:157] Top shape: 1 64 128 128 (1048576)
I0919 14:59:03.506111 30642 net.cpp:165] Memory required for data: 910163972
I0919 14:59:03.506121 30642 layer_factory.hpp:77] Creating layer inception_3b/double3x3_reduce/bn/sc
I0919 14:59:03.506129 30642 net.cpp:100] Creating Layer inception_3b/double3x3_reduce/bn/sc
I0919 14:59:03.506132 30642 net.cpp:434] inception_3b/double3x3_reduce/bn/sc <- inception_3b/double3x3_reduce/bn
I0919 14:59:03.506140 30642 net.cpp:408] inception_3b/double3x3_reduce/bn/sc -> inception_3b/double3x3_reduce/bn/sc
I0919 14:59:03.506175 30642 layer_factory.hpp:77] Creating layer inception_3b/double3x3_reduce/bn/sc
I0919 14:59:03.506295 30642 net.cpp:150] Setting up inception_3b/double3x3_reduce/bn/sc
I0919 14:59:03.506304 30642 net.cpp:157] Top shape: 1 64 128 128 (1048576)
I0919 14:59:03.506307 30642 net.cpp:165] Memory required for data: 914358276
I0919 14:59:03.506312 30642 layer_factory.hpp:77] Creating layer inception_3b/double3x3_reduce/bn/sc/relu
I0919 14:59:03.506330 30642 net.cpp:100] Creating Layer inception_3b/double3x3_reduce/bn/sc/relu
I0919 14:59:03.506335 30642 net.cpp:434] inception_3b/double3x3_reduce/bn/sc/relu <- inception_3b/double3x3_reduce/bn/sc
I0919 14:59:03.506341 30642 net.cpp:395] inception_3b/double3x3_reduce/bn/sc/relu -> inception_3b/double3x3_reduce/bn/sc (in-place)
I0919 14:59:03.506347 30642 net.cpp:150] Setting up inception_3b/double3x3_reduce/bn/sc/relu
I0919 14:59:03.506351 30642 net.cpp:157] Top shape: 1 64 128 128 (1048576)
I0919 14:59:03.506355 30642 net.cpp:165] Memory required for data: 918552580
I0919 14:59:03.506358 30642 layer_factory.hpp:77] Creating layer inception_3b/double3x3a
I0919 14:59:03.506366 30642 net.cpp:100] Creating Layer inception_3b/double3x3a
I0919 14:59:03.506369 30642 net.cpp:434] inception_3b/double3x3a <- inception_3b/double3x3_reduce/bn/sc
I0919 14:59:03.506376 30642 net.cpp:408] inception_3b/double3x3a -> inception_3b/double3x3a
I0919 14:59:03.506860 30642 net.cpp:150] Setting up inception_3b/double3x3a
I0919 14:59:03.506866 30642 net.cpp:157] Top shape: 1 96 128 128 (1572864)
I0919 14:59:03.506870 30642 net.cpp:165] Memory required for data: 924844036
I0919 14:59:03.506875 30642 layer_factory.hpp:77] Creating layer inception_3b/double3x3a/bn
I0919 14:59:03.506901 30642 net.cpp:100] Creating Layer inception_3b/double3x3a/bn
I0919 14:59:03.506906 30642 net.cpp:434] inception_3b/double3x3a/bn <- inception_3b/double3x3a
I0919 14:59:03.506912 30642 net.cpp:408] inception_3b/double3x3a/bn -> inception_3b/double3x3a/bn
I0919 14:59:03.507112 30642 net.cpp:150] Setting up inception_3b/double3x3a/bn
I0919 14:59:03.507119 30642 net.cpp:157] Top shape: 1 96 128 128 (1572864)
I0919 14:59:03.507125 30642 net.cpp:165] Memory required for data: 931135492
I0919 14:59:03.507133 30642 layer_factory.hpp:77] Creating layer inception_3b/double3x3a/bn/sc
I0919 14:59:03.507138 30642 net.cpp:100] Creating Layer inception_3b/double3x3a/bn/sc
I0919 14:59:03.507143 30642 net.cpp:434] inception_3b/double3x3a/bn/sc <- inception_3b/double3x3a/bn
I0919 14:59:03.507148 30642 net.cpp:408] inception_3b/double3x3a/bn/sc -> inception_3b/double3x3a/bn/sc
I0919 14:59:03.507181 30642 layer_factory.hpp:77] Creating layer inception_3b/double3x3a/bn/sc
I0919 14:59:03.507306 30642 net.cpp:150] Setting up inception_3b/double3x3a/bn/sc
I0919 14:59:03.507315 30642 net.cpp:157] Top shape: 1 96 128 128 (1572864)
I0919 14:59:03.507318 30642 net.cpp:165] Memory required for data: 937426948
I0919 14:59:03.507325 30642 layer_factory.hpp:77] Creating layer inception_3b/double3x3a/bn/sc/relu
I0919 14:59:03.507330 30642 net.cpp:100] Creating Layer inception_3b/double3x3a/bn/sc/relu
I0919 14:59:03.507335 30642 net.cpp:434] inception_3b/double3x3a/bn/sc/relu <- inception_3b/double3x3a/bn/sc
I0919 14:59:03.507340 30642 net.cpp:395] inception_3b/double3x3a/bn/sc/relu -> inception_3b/double3x3a/bn/sc (in-place)
I0919 14:59:03.507346 30642 net.cpp:150] Setting up inception_3b/double3x3a/bn/sc/relu
I0919 14:59:03.507350 30642 net.cpp:157] Top shape: 1 96 128 128 (1572864)
I0919 14:59:03.507354 30642 net.cpp:165] Memory required for data: 943718404
I0919 14:59:03.507357 30642 layer_factory.hpp:77] Creating layer inception_3b/double3x3b
I0919 14:59:03.507366 30642 net.cpp:100] Creating Layer inception_3b/double3x3b
I0919 14:59:03.507370 30642 net.cpp:434] inception_3b/double3x3b <- inception_3b/double3x3a/bn/sc
I0919 14:59:03.507378 30642 net.cpp:408] inception_3b/double3x3b -> inception_3b/double3x3b
I0919 14:59:03.509335 30642 net.cpp:150] Setting up inception_3b/double3x3b
I0919 14:59:03.509349 30642 net.cpp:157] Top shape: 1 96 128 128 (1572864)
I0919 14:59:03.509352 30642 net.cpp:165] Memory required for data: 950009860
I0919 14:59:03.509359 30642 layer_factory.hpp:77] Creating layer inception_3b/double3x3b/bn
I0919 14:59:03.509367 30642 net.cpp:100] Creating Layer inception_3b/double3x3b/bn
I0919 14:59:03.509371 30642 net.cpp:434] inception_3b/double3x3b/bn <- inception_3b/double3x3b
I0919 14:59:03.509390 30642 net.cpp:408] inception_3b/double3x3b/bn -> inception_3b/double3x3b/bn
I0919 14:59:03.509599 30642 net.cpp:150] Setting up inception_3b/double3x3b/bn
I0919 14:59:03.509608 30642 net.cpp:157] Top shape: 1 96 128 128 (1572864)
I0919 14:59:03.509611 30642 net.cpp:165] Memory required for data: 956301316
I0919 14:59:03.509618 30642 layer_factory.hpp:77] Creating layer inception_3b/double3x3b/bn/sc
I0919 14:59:03.509625 30642 net.cpp:100] Creating Layer inception_3b/double3x3b/bn/sc
I0919 14:59:03.509629 30642 net.cpp:434] inception_3b/double3x3b/bn/sc <- inception_3b/double3x3b/bn
I0919 14:59:03.509637 30642 net.cpp:408] inception_3b/double3x3b/bn/sc -> inception_3b/double3x3b/bn/sc
I0919 14:59:03.509672 30642 layer_factory.hpp:77] Creating layer inception_3b/double3x3b/bn/sc
I0919 14:59:03.509805 30642 net.cpp:150] Setting up inception_3b/double3x3b/bn/sc
I0919 14:59:03.509814 30642 net.cpp:157] Top shape: 1 96 128 128 (1572864)
I0919 14:59:03.509817 30642 net.cpp:165] Memory required for data: 962592772
I0919 14:59:03.509822 30642 layer_factory.hpp:77] Creating layer inception_3b/double3x3b/bn/sc/relu
I0919 14:59:03.509829 30642 net.cpp:100] Creating Layer inception_3b/double3x3b/bn/sc/relu
I0919 14:59:03.509832 30642 net.cpp:434] inception_3b/double3x3b/bn/sc/relu <- inception_3b/double3x3b/bn/sc
I0919 14:59:03.509838 30642 net.cpp:395] inception_3b/double3x3b/bn/sc/relu -> inception_3b/double3x3b/bn/sc (in-place)
I0919 14:59:03.509845 30642 net.cpp:150] Setting up inception_3b/double3x3b/bn/sc/relu
I0919 14:59:03.509850 30642 net.cpp:157] Top shape: 1 96 128 128 (1572864)
I0919 14:59:03.509855 30642 net.cpp:165] Memory required for data: 968884228
I0919 14:59:03.509860 30642 layer_factory.hpp:77] Creating layer inception_3b/pool
I0919 14:59:03.509865 30642 net.cpp:100] Creating Layer inception_3b/pool
I0919 14:59:03.509871 30642 net.cpp:434] inception_3b/pool <- inception_3a/output_inception_3a/output_0_split_3
I0919 14:59:03.509877 30642 net.cpp:408] inception_3b/pool -> inception_3b/pool
I0919 14:59:03.509902 30642 net.cpp:150] Setting up inception_3b/pool
I0919 14:59:03.509907 30642 net.cpp:157] Top shape: 1 256 128 128 (4194304)
I0919 14:59:03.509910 30642 net.cpp:165] Memory required for data: 985661444
I0919 14:59:03.509914 30642 layer_factory.hpp:77] Creating layer inception_3b/pool_proj
I0919 14:59:03.509922 30642 net.cpp:100] Creating Layer inception_3b/pool_proj
I0919 14:59:03.509925 30642 net.cpp:434] inception_3b/pool_proj <- inception_3b/pool
I0919 14:59:03.509941 30642 net.cpp:408] inception_3b/pool_proj -> inception_3b/pool_proj
I0919 14:59:03.510174 30642 net.cpp:150] Setting up inception_3b/pool_proj
I0919 14:59:03.510179 30642 net.cpp:157] Top shape: 1 64 128 128 (1048576)
I0919 14:59:03.510182 30642 net.cpp:165] Memory required for data: 989855748
I0919 14:59:03.510187 30642 layer_factory.hpp:77] Creating layer inception_3b/pool_proj/bn
I0919 14:59:03.510195 30642 net.cpp:100] Creating Layer inception_3b/pool_proj/bn
I0919 14:59:03.510198 30642 net.cpp:434] inception_3b/pool_proj/bn <- inception_3b/pool_proj
I0919 14:59:03.510202 30642 net.cpp:408] inception_3b/pool_proj/bn -> inception_3b/pool_proj/bn
I0919 14:59:03.510394 30642 net.cpp:150] Setting up inception_3b/pool_proj/bn
I0919 14:59:03.510404 30642 net.cpp:157] Top shape: 1 64 128 128 (1048576)
I0919 14:59:03.510408 30642 net.cpp:165] Memory required for data: 994050052
I0919 14:59:03.510414 30642 layer_factory.hpp:77] Creating layer inception_3b/pool_proj/bn/sc
I0919 14:59:03.510419 30642 net.cpp:100] Creating Layer inception_3b/pool_proj/bn/sc
I0919 14:59:03.510423 30642 net.cpp:434] inception_3b/pool_proj/bn/sc <- inception_3b/pool_proj/bn
I0919 14:59:03.510432 30642 net.cpp:408] inception_3b/pool_proj/bn/sc -> inception_3b/pool_proj/bn/sc
I0919 14:59:03.510463 30642 layer_factory.hpp:77] Creating layer inception_3b/pool_proj/bn/sc
I0919 14:59:03.510582 30642 net.cpp:150] Setting up inception_3b/pool_proj/bn/sc
I0919 14:59:03.510589 30642 net.cpp:157] Top shape: 1 64 128 128 (1048576)
I0919 14:59:03.510592 30642 net.cpp:165] Memory required for data: 998244356
I0919 14:59:03.510607 30642 layer_factory.hpp:77] Creating layer inception_3b/pool_proj/bn/sc/relu
I0919 14:59:03.510613 30642 net.cpp:100] Creating Layer inception_3b/pool_proj/bn/sc/relu
I0919 14:59:03.510618 30642 net.cpp:434] inception_3b/pool_proj/bn/sc/relu <- inception_3b/pool_proj/bn/sc
I0919 14:59:03.510624 30642 net.cpp:395] inception_3b/pool_proj/bn/sc/relu -> inception_3b/pool_proj/bn/sc (in-place)
I0919 14:59:03.510629 30642 net.cpp:150] Setting up inception_3b/pool_proj/bn/sc/relu
I0919 14:59:03.510634 30642 net.cpp:157] Top shape: 1 64 128 128 (1048576)
I0919 14:59:03.510637 30642 net.cpp:165] Memory required for data: 1002438660
I0919 14:59:03.510640 30642 layer_factory.hpp:77] Creating layer inception_3b/output
I0919 14:59:03.510646 30642 net.cpp:100] Creating Layer inception_3b/output
I0919 14:59:03.510650 30642 net.cpp:434] inception_3b/output <- inception_3b/1x1/bn/sc
I0919 14:59:03.510654 30642 net.cpp:434] inception_3b/output <- inception_3b/3x3/bn/sc
I0919 14:59:03.510659 30642 net.cpp:434] inception_3b/output <- inception_3b/double3x3b/bn/sc
I0919 14:59:03.510663 30642 net.cpp:434] inception_3b/output <- inception_3b/pool_proj/bn/sc
I0919 14:59:03.510673 30642 net.cpp:408] inception_3b/output -> inception_3b/output
I0919 14:59:03.510691 30642 net.cpp:150] Setting up inception_3b/output
I0919 14:59:03.510696 30642 net.cpp:157] Top shape: 1 320 128 128 (5242880)
I0919 14:59:03.510699 30642 net.cpp:165] Memory required for data: 1023410180
I0919 14:59:03.510702 30642 layer_factory.hpp:77] Creating layer inception_3b/output_inception_3b/output_0_split
I0919 14:59:03.510709 30642 net.cpp:100] Creating Layer inception_3b/output_inception_3b/output_0_split
I0919 14:59:03.510711 30642 net.cpp:434] inception_3b/output_inception_3b/output_0_split <- inception_3b/output
I0919 14:59:03.510716 30642 net.cpp:408] inception_3b/output_inception_3b/output_0_split -> inception_3b/output_inception_3b/output_0_split_0
I0919 14:59:03.510725 30642 net.cpp:408] inception_3b/output_inception_3b/output_0_split -> inception_3b/output_inception_3b/output_0_split_1
I0919 14:59:03.510730 30642 net.cpp:408] inception_3b/output_inception_3b/output_0_split -> inception_3b/output_inception_3b/output_0_split_2
I0919 14:59:03.510768 30642 net.cpp:150] Setting up inception_3b/output_inception_3b/output_0_split
I0919 14:59:03.510772 30642 net.cpp:157] Top shape: 1 320 128 128 (5242880)
I0919 14:59:03.510777 30642 net.cpp:157] Top shape: 1 320 128 128 (5242880)
I0919 14:59:03.510780 30642 net.cpp:157] Top shape: 1 320 128 128 (5242880)
I0919 14:59:03.510783 30642 net.cpp:165] Memory required for data: 1086324740
I0919 14:59:03.510787 30642 layer_factory.hpp:77] Creating layer inception_3c/3x3_reduce
I0919 14:59:03.510797 30642 net.cpp:100] Creating Layer inception_3c/3x3_reduce
I0919 14:59:03.510800 30642 net.cpp:434] inception_3c/3x3_reduce <- inception_3b/output_inception_3b/output_0_split_0
I0919 14:59:03.510805 30642 net.cpp:408] inception_3c/3x3_reduce -> inception_3c/3x3_reduce
I0919 14:59:03.511185 30642 net.cpp:150] Setting up inception_3c/3x3_reduce
I0919 14:59:03.511194 30642 net.cpp:157] Top shape: 1 128 128 128 (2097152)
I0919 14:59:03.511198 30642 net.cpp:165] Memory required for data: 1094713348
I0919 14:59:03.511202 30642 layer_factory.hpp:77] Creating layer inception_3c/3x3_reduce/bn
I0919 14:59:03.511207 30642 net.cpp:100] Creating Layer inception_3c/3x3_reduce/bn
I0919 14:59:03.511211 30642 net.cpp:434] inception_3c/3x3_reduce/bn <- inception_3c/3x3_reduce
I0919 14:59:03.511216 30642 net.cpp:408] inception_3c/3x3_reduce/bn -> inception_3c/3x3_reduce/bn
I0919 14:59:03.511389 30642 net.cpp:150] Setting up inception_3c/3x3_reduce/bn
I0919 14:59:03.511395 30642 net.cpp:157] Top shape: 1 128 128 128 (2097152)
I0919 14:59:03.511399 30642 net.cpp:165] Memory required for data: 1103101956
I0919 14:59:03.511406 30642 layer_factory.hpp:77] Creating layer inception_3c/3x3_reduce/bn/sc
I0919 14:59:03.511411 30642 net.cpp:100] Creating Layer inception_3c/3x3_reduce/bn/sc
I0919 14:59:03.511415 30642 net.cpp:434] inception_3c/3x3_reduce/bn/sc <- inception_3c/3x3_reduce/bn
I0919 14:59:03.511430 30642 net.cpp:408] inception_3c/3x3_reduce/bn/sc -> inception_3c/3x3_reduce/bn/sc
I0919 14:59:03.511461 30642 layer_factory.hpp:77] Creating layer inception_3c/3x3_reduce/bn/sc
I0919 14:59:03.511574 30642 net.cpp:150] Setting up inception_3c/3x3_reduce/bn/sc
I0919 14:59:03.511580 30642 net.cpp:157] Top shape: 1 128 128 128 (2097152)
I0919 14:59:03.511584 30642 net.cpp:165] Memory required for data: 1111490564
I0919 14:59:03.511590 30642 layer_factory.hpp:77] Creating layer inception_3c/3x3_reduce/bn/sc/relu
I0919 14:59:03.511596 30642 net.cpp:100] Creating Layer inception_3c/3x3_reduce/bn/sc/relu
I0919 14:59:03.511600 30642 net.cpp:434] inception_3c/3x3_reduce/bn/sc/relu <- inception_3c/3x3_reduce/bn/sc
I0919 14:59:03.511605 30642 net.cpp:395] inception_3c/3x3_reduce/bn/sc/relu -> inception_3c/3x3_reduce/bn/sc (in-place)
I0919 14:59:03.511610 30642 net.cpp:150] Setting up inception_3c/3x3_reduce/bn/sc/relu
I0919 14:59:03.511615 30642 net.cpp:157] Top shape: 1 128 128 128 (2097152)
I0919 14:59:03.511616 30642 net.cpp:165] Memory required for data: 1119879172
I0919 14:59:03.511620 30642 layer_factory.hpp:77] Creating layer inception_3c/3x3
I0919 14:59:03.511628 30642 net.cpp:100] Creating Layer inception_3c/3x3
I0919 14:59:03.511632 30642 net.cpp:434] inception_3c/3x3 <- inception_3c/3x3_reduce/bn/sc
I0919 14:59:03.511639 30642 net.cpp:408] inception_3c/3x3 -> inception_3c/3x3
I0919 14:59:03.512748 30642 net.cpp:150] Setting up inception_3c/3x3
I0919 14:59:03.512755 30642 net.cpp:157] Top shape: 1 160 64 64 (655360)
I0919 14:59:03.512758 30642 net.cpp:165] Memory required for data: 1122500612
I0919 14:59:03.512763 30642 layer_factory.hpp:77] Creating layer inception_3c/3x3/bn
I0919 14:59:03.512770 30642 net.cpp:100] Creating Layer inception_3c/3x3/bn
I0919 14:59:03.512774 30642 net.cpp:434] inception_3c/3x3/bn <- inception_3c/3x3
I0919 14:59:03.512779 30642 net.cpp:408] inception_3c/3x3/bn -> inception_3c/3x3/bn
I0919 14:59:03.512949 30642 net.cpp:150] Setting up inception_3c/3x3/bn
I0919 14:59:03.512956 30642 net.cpp:157] Top shape: 1 160 64 64 (655360)
I0919 14:59:03.512959 30642 net.cpp:165] Memory required for data: 1125122052
I0919 14:59:03.512965 30642 layer_factory.hpp:77] Creating layer inception_3c/3x3/bn/sc
I0919 14:59:03.512974 30642 net.cpp:100] Creating Layer inception_3c/3x3/bn/sc
I0919 14:59:03.512977 30642 net.cpp:434] inception_3c/3x3/bn/sc <- inception_3c/3x3/bn
I0919 14:59:03.512984 30642 net.cpp:408] inception_3c/3x3/bn/sc -> inception_3c/3x3/bn/sc
I0919 14:59:03.513015 30642 layer_factory.hpp:77] Creating layer inception_3c/3x3/bn/sc
I0919 14:59:03.513118 30642 net.cpp:150] Setting up inception_3c/3x3/bn/sc
I0919 14:59:03.513125 30642 net.cpp:157] Top shape: 1 160 64 64 (655360)
I0919 14:59:03.513128 30642 net.cpp:165] Memory required for data: 1127743492
I0919 14:59:03.513134 30642 layer_factory.hpp:77] Creating layer inception_3c/3x3/bn/sc/relu
I0919 14:59:03.513139 30642 net.cpp:100] Creating Layer inception_3c/3x3/bn/sc/relu
I0919 14:59:03.513144 30642 net.cpp:434] inception_3c/3x3/bn/sc/relu <- inception_3c/3x3/bn/sc
I0919 14:59:03.513149 30642 net.cpp:395] inception_3c/3x3/bn/sc/relu -> inception_3c/3x3/bn/sc (in-place)
I0919 14:59:03.513154 30642 net.cpp:150] Setting up inception_3c/3x3/bn/sc/relu
I0919 14:59:03.513157 30642 net.cpp:157] Top shape: 1 160 64 64 (655360)
I0919 14:59:03.513160 30642 net.cpp:165] Memory required for data: 1130364932
I0919 14:59:03.513164 30642 layer_factory.hpp:77] Creating layer inception_3c/double3x3_reduce
I0919 14:59:03.513171 30642 net.cpp:100] Creating Layer inception_3c/double3x3_reduce
I0919 14:59:03.513175 30642 net.cpp:434] inception_3c/double3x3_reduce <- inception_3b/output_inception_3b/output_0_split_1
I0919 14:59:03.513186 30642 net.cpp:408] inception_3c/double3x3_reduce -> inception_3c/double3x3_reduce
I0919 14:59:03.513438 30642 net.cpp:150] Setting up inception_3c/double3x3_reduce
I0919 14:59:03.513444 30642 net.cpp:157] Top shape: 1 64 128 128 (1048576)
I0919 14:59:03.513458 30642 net.cpp:165] Memory required for data: 1134559236
I0919 14:59:03.513461 30642 layer_factory.hpp:77] Creating layer inception_3c/double3x3_reduce/bn
I0919 14:59:03.513469 30642 net.cpp:100] Creating Layer inception_3c/double3x3_reduce/bn
I0919 14:59:03.513473 30642 net.cpp:434] inception_3c/double3x3_reduce/bn <- inception_3c/double3x3_reduce
I0919 14:59:03.513478 30642 net.cpp:408] inception_3c/double3x3_reduce/bn -> inception_3c/double3x3_reduce/bn
I0919 14:59:03.513654 30642 net.cpp:150] Setting up inception_3c/double3x3_reduce/bn
I0919 14:59:03.513661 30642 net.cpp:157] Top shape: 1 64 128 128 (1048576)
I0919 14:59:03.513664 30642 net.cpp:165] Memory required for data: 1138753540
I0919 14:59:03.513672 30642 layer_factory.hpp:77] Creating layer inception_3c/double3x3_reduce/bn/sc
I0919 14:59:03.513679 30642 net.cpp:100] Creating Layer inception_3c/double3x3_reduce/bn/sc
I0919 14:59:03.513684 30642 net.cpp:434] inception_3c/double3x3_reduce/bn/sc <- inception_3c/double3x3_reduce/bn
I0919 14:59:03.513690 30642 net.cpp:408] inception_3c/double3x3_reduce/bn/sc -> inception_3c/double3x3_reduce/bn/sc
I0919 14:59:03.513721 30642 layer_factory.hpp:77] Creating layer inception_3c/double3x3_reduce/bn/sc
I0919 14:59:03.513844 30642 net.cpp:150] Setting up inception_3c/double3x3_reduce/bn/sc
I0919 14:59:03.513862 30642 net.cpp:157] Top shape: 1 64 128 128 (1048576)
I0919 14:59:03.513864 30642 net.cpp:165] Memory required for data: 1142947844
I0919 14:59:03.513870 30642 layer_factory.hpp:77] Creating layer inception_3c/double3x3_reduce/bn/sc/relu
I0919 14:59:03.513875 30642 net.cpp:100] Creating Layer inception_3c/double3x3_reduce/bn/sc/relu
I0919 14:59:03.513878 30642 net.cpp:434] inception_3c/double3x3_reduce/bn/sc/relu <- inception_3c/double3x3_reduce/bn/sc
I0919 14:59:03.513885 30642 net.cpp:395] inception_3c/double3x3_reduce/bn/sc/relu -> inception_3c/double3x3_reduce/bn/sc (in-place)
I0919 14:59:03.513890 30642 net.cpp:150] Setting up inception_3c/double3x3_reduce/bn/sc/relu
I0919 14:59:03.513895 30642 net.cpp:157] Top shape: 1 64 128 128 (1048576)
I0919 14:59:03.513898 30642 net.cpp:165] Memory required for data: 1147142148
I0919 14:59:03.513901 30642 layer_factory.hpp:77] Creating layer inception_3c/double3x3a
I0919 14:59:03.513908 30642 net.cpp:100] Creating Layer inception_3c/double3x3a
I0919 14:59:03.513912 30642 net.cpp:434] inception_3c/double3x3a <- inception_3c/double3x3_reduce/bn/sc
I0919 14:59:03.513918 30642 net.cpp:408] inception_3c/double3x3a -> inception_3c/double3x3a
I0919 14:59:03.514355 30642 net.cpp:150] Setting up inception_3c/double3x3a
I0919 14:59:03.514362 30642 net.cpp:157] Top shape: 1 96 128 128 (1572864)
I0919 14:59:03.514366 30642 net.cpp:165] Memory required for data: 1153433604
I0919 14:59:03.514372 30642 layer_factory.hpp:77] Creating layer inception_3c/double3x3a/bn
I0919 14:59:03.514377 30642 net.cpp:100] Creating Layer inception_3c/double3x3a/bn
I0919 14:59:03.514380 30642 net.cpp:434] inception_3c/double3x3a/bn <- inception_3c/double3x3a
I0919 14:59:03.514387 30642 net.cpp:408] inception_3c/double3x3a/bn -> inception_3c/double3x3a/bn
I0919 14:59:03.514572 30642 net.cpp:150] Setting up inception_3c/double3x3a/bn
I0919 14:59:03.514580 30642 net.cpp:157] Top shape: 1 96 128 128 (1572864)
I0919 14:59:03.514582 30642 net.cpp:165] Memory required for data: 1159725060
I0919 14:59:03.514588 30642 layer_factory.hpp:77] Creating layer inception_3c/double3x3a/bn/sc
I0919 14:59:03.514595 30642 net.cpp:100] Creating Layer inception_3c/double3x3a/bn/sc
I0919 14:59:03.514597 30642 net.cpp:434] inception_3c/double3x3a/bn/sc <- inception_3c/double3x3a/bn
I0919 14:59:03.514602 30642 net.cpp:408] inception_3c/double3x3a/bn/sc -> inception_3c/double3x3a/bn/sc
I0919 14:59:03.514636 30642 layer_factory.hpp:77] Creating layer inception_3c/double3x3a/bn/sc
I0919 14:59:03.514753 30642 net.cpp:150] Setting up inception_3c/double3x3a/bn/sc
I0919 14:59:03.514760 30642 net.cpp:157] Top shape: 1 96 128 128 (1572864)
I0919 14:59:03.514763 30642 net.cpp:165] Memory required for data: 1166016516
I0919 14:59:03.514777 30642 layer_factory.hpp:77] Creating layer inception_3c/double3x3a/bn/sc/relu
I0919 14:59:03.514786 30642 net.cpp:100] Creating Layer inception_3c/double3x3a/bn/sc/relu
I0919 14:59:03.514788 30642 net.cpp:434] inception_3c/double3x3a/bn/sc/relu <- inception_3c/double3x3a/bn/sc
I0919 14:59:03.514792 30642 net.cpp:395] inception_3c/double3x3a/bn/sc/relu -> inception_3c/double3x3a/bn/sc (in-place)
I0919 14:59:03.514798 30642 net.cpp:150] Setting up inception_3c/double3x3a/bn/sc/relu
I0919 14:59:03.514802 30642 net.cpp:157] Top shape: 1 96 128 128 (1572864)
I0919 14:59:03.514806 30642 net.cpp:165] Memory required for data: 1172307972
I0919 14:59:03.514808 30642 layer_factory.hpp:77] Creating layer inception_3c/double3x3b
I0919 14:59:03.514817 30642 net.cpp:100] Creating Layer inception_3c/double3x3b
I0919 14:59:03.514820 30642 net.cpp:434] inception_3c/double3x3b <- inception_3c/double3x3a/bn/sc
I0919 14:59:03.514825 30642 net.cpp:408] inception_3c/double3x3b -> inception_3c/double3x3b
I0919 14:59:03.515411 30642 net.cpp:150] Setting up inception_3c/double3x3b
I0919 14:59:03.515419 30642 net.cpp:157] Top shape: 1 96 64 64 (393216)
I0919 14:59:03.515422 30642 net.cpp:165] Memory required for data: 1173880836
I0919 14:59:03.515427 30642 layer_factory.hpp:77] Creating layer inception_3c/double3x3b/bn
I0919 14:59:03.515432 30642 net.cpp:100] Creating Layer inception_3c/double3x3b/bn
I0919 14:59:03.515436 30642 net.cpp:434] inception_3c/double3x3b/bn <- inception_3c/double3x3b
I0919 14:59:03.515441 30642 net.cpp:408] inception_3c/double3x3b/bn -> inception_3c/double3x3b/bn
I0919 14:59:03.515612 30642 net.cpp:150] Setting up inception_3c/double3x3b/bn
I0919 14:59:03.515619 30642 net.cpp:157] Top shape: 1 96 64 64 (393216)
I0919 14:59:03.515622 30642 net.cpp:165] Memory required for data: 1175453700
I0919 14:59:03.515652 30642 layer_factory.hpp:77] Creating layer inception_3c/double3x3b/bn/sc
I0919 14:59:03.515661 30642 net.cpp:100] Creating Layer inception_3c/double3x3b/bn/sc
I0919 14:59:03.515663 30642 net.cpp:434] inception_3c/double3x3b/bn/sc <- inception_3c/double3x3b/bn
I0919 14:59:03.515669 30642 net.cpp:408] inception_3c/double3x3b/bn/sc -> inception_3c/double3x3b/bn/sc
I0919 14:59:03.515699 30642 layer_factory.hpp:77] Creating layer inception_3c/double3x3b/bn/sc
I0919 14:59:03.515797 30642 net.cpp:150] Setting up inception_3c/double3x3b/bn/sc
I0919 14:59:03.515803 30642 net.cpp:157] Top shape: 1 96 64 64 (393216)
I0919 14:59:03.515807 30642 net.cpp:165] Memory required for data: 1177026564
I0919 14:59:03.515812 30642 layer_factory.hpp:77] Creating layer inception_3c/double3x3b/bn/sc/relu
I0919 14:59:03.515816 30642 net.cpp:100] Creating Layer inception_3c/double3x3b/bn/sc/relu
I0919 14:59:03.515820 30642 net.cpp:434] inception_3c/double3x3b/bn/sc/relu <- inception_3c/double3x3b/bn/sc
I0919 14:59:03.515826 30642 net.cpp:395] inception_3c/double3x3b/bn/sc/relu -> inception_3c/double3x3b/bn/sc (in-place)
I0919 14:59:03.515831 30642 net.cpp:150] Setting up inception_3c/double3x3b/bn/sc/relu
I0919 14:59:03.515836 30642 net.cpp:157] Top shape: 1 96 64 64 (393216)
I0919 14:59:03.515837 30642 net.cpp:165] Memory required for data: 1178599428
I0919 14:59:03.515841 30642 layer_factory.hpp:77] Creating layer inception_3c/pool
I0919 14:59:03.515848 30642 net.cpp:100] Creating Layer inception_3c/pool
I0919 14:59:03.515851 30642 net.cpp:434] inception_3c/pool <- inception_3b/output_inception_3b/output_0_split_2
I0919 14:59:03.515856 30642 net.cpp:408] inception_3c/pool -> inception_3c/pool
I0919 14:59:03.515889 30642 net.cpp:150] Setting up inception_3c/pool
I0919 14:59:03.515895 30642 net.cpp:157] Top shape: 1 320 64 64 (1310720)
I0919 14:59:03.515898 30642 net.cpp:165] Memory required for data: 1183842308
I0919 14:59:03.515902 30642 layer_factory.hpp:77] Creating layer inception_3c/output
I0919 14:59:03.515908 30642 net.cpp:100] Creating Layer inception_3c/output
I0919 14:59:03.515911 30642 net.cpp:434] inception_3c/output <- inception_3c/3x3/bn/sc
I0919 14:59:03.515915 30642 net.cpp:434] inception_3c/output <- inception_3c/double3x3b/bn/sc
I0919 14:59:03.515931 30642 net.cpp:434] inception_3c/output <- inception_3c/pool
I0919 14:59:03.515936 30642 net.cpp:408] inception_3c/output -> inception_3c/output
I0919 14:59:03.515957 30642 net.cpp:150] Setting up inception_3c/output
I0919 14:59:03.515966 30642 net.cpp:157] Top shape: 1 576 64 64 (2359296)
I0919 14:59:03.515969 30642 net.cpp:165] Memory required for data: 1193279492
I0919 14:59:03.515972 30642 layer_factory.hpp:77] Creating layer inception_3c/output_inception_3c/output_0_split
I0919 14:59:03.515980 30642 net.cpp:100] Creating Layer inception_3c/output_inception_3c/output_0_split
I0919 14:59:03.515982 30642 net.cpp:434] inception_3c/output_inception_3c/output_0_split <- inception_3c/output
I0919 14:59:03.515987 30642 net.cpp:408] inception_3c/output_inception_3c/output_0_split -> inception_3c/output_inception_3c/output_0_split_0
I0919 14:59:03.515995 30642 net.cpp:408] inception_3c/output_inception_3c/output_0_split -> inception_3c/output_inception_3c/output_0_split_1
I0919 14:59:03.516002 30642 net.cpp:408] inception_3c/output_inception_3c/output_0_split -> inception_3c/output_inception_3c/output_0_split_2
I0919 14:59:03.516007 30642 net.cpp:408] inception_3c/output_inception_3c/output_0_split -> inception_3c/output_inception_3c/output_0_split_3
I0919 14:59:03.516054 30642 net.cpp:150] Setting up inception_3c/output_inception_3c/output_0_split
I0919 14:59:03.516059 30642 net.cpp:157] Top shape: 1 576 64 64 (2359296)
I0919 14:59:03.516063 30642 net.cpp:157] Top shape: 1 576 64 64 (2359296)
I0919 14:59:03.516067 30642 net.cpp:157] Top shape: 1 576 64 64 (2359296)
I0919 14:59:03.516070 30642 net.cpp:157] Top shape: 1 576 64 64 (2359296)
I0919 14:59:03.516073 30642 net.cpp:165] Memory required for data: 1231028228
I0919 14:59:03.516075 30642 layer_factory.hpp:77] Creating layer inception_4a/1x1
I0919 14:59:03.516086 30642 net.cpp:100] Creating Layer inception_4a/1x1
I0919 14:59:03.516089 30642 net.cpp:434] inception_4a/1x1 <- inception_3c/output_inception_3c/output_0_split_0
I0919 14:59:03.516098 30642 net.cpp:408] inception_4a/1x1 -> inception_4a/1x1
I0919 14:59:03.516911 30642 net.cpp:150] Setting up inception_4a/1x1
I0919 14:59:03.516921 30642 net.cpp:157] Top shape: 1 224 64 64 (917504)
I0919 14:59:03.516923 30642 net.cpp:165] Memory required for data: 1234698244
I0919 14:59:03.516929 30642 layer_factory.hpp:77] Creating layer inception_4a/1x1/bn
I0919 14:59:03.516934 30642 net.cpp:100] Creating Layer inception_4a/1x1/bn
I0919 14:59:03.516938 30642 net.cpp:434] inception_4a/1x1/bn <- inception_4a/1x1
I0919 14:59:03.516945 30642 net.cpp:408] inception_4a/1x1/bn -> inception_4a/1x1/bn
I0919 14:59:03.517119 30642 net.cpp:150] Setting up inception_4a/1x1/bn
I0919 14:59:03.517127 30642 net.cpp:157] Top shape: 1 224 64 64 (917504)
I0919 14:59:03.517130 30642 net.cpp:165] Memory required for data: 1238368260
I0919 14:59:03.517136 30642 layer_factory.hpp:77] Creating layer inception_4a/1x1/bn/sc
I0919 14:59:03.517143 30642 net.cpp:100] Creating Layer inception_4a/1x1/bn/sc
I0919 14:59:03.517148 30642 net.cpp:434] inception_4a/1x1/bn/sc <- inception_4a/1x1/bn
I0919 14:59:03.517151 30642 net.cpp:408] inception_4a/1x1/bn/sc -> inception_4a/1x1/bn/sc
I0919 14:59:03.517184 30642 layer_factory.hpp:77] Creating layer inception_4a/1x1/bn/sc
I0919 14:59:03.517282 30642 net.cpp:150] Setting up inception_4a/1x1/bn/sc
I0919 14:59:03.517288 30642 net.cpp:157] Top shape: 1 224 64 64 (917504)
I0919 14:59:03.517290 30642 net.cpp:165] Memory required for data: 1242038276
I0919 14:59:03.517298 30642 layer_factory.hpp:77] Creating layer inception_4a/1x1/bn/sc/relu
I0919 14:59:03.517303 30642 net.cpp:100] Creating Layer inception_4a/1x1/bn/sc/relu
I0919 14:59:03.517307 30642 net.cpp:434] inception_4a/1x1/bn/sc/relu <- inception_4a/1x1/bn/sc
I0919 14:59:03.517314 30642 net.cpp:395] inception_4a/1x1/bn/sc/relu -> inception_4a/1x1/bn/sc (in-place)
I0919 14:59:03.517319 30642 net.cpp:150] Setting up inception_4a/1x1/bn/sc/relu
I0919 14:59:03.517326 30642 net.cpp:157] Top shape: 1 224 64 64 (917504)
I0919 14:59:03.517338 30642 net.cpp:165] Memory required for data: 1245708292
I0919 14:59:03.517341 30642 layer_factory.hpp:77] Creating layer inception_4a/3x3_reduce
I0919 14:59:03.517350 30642 net.cpp:100] Creating Layer inception_4a/3x3_reduce
I0919 14:59:03.517354 30642 net.cpp:434] inception_4a/3x3_reduce <- inception_3c/output_inception_3c/output_0_split_1
I0919 14:59:03.517360 30642 net.cpp:408] inception_4a/3x3_reduce -> inception_4a/3x3_reduce
I0919 14:59:03.517704 30642 net.cpp:150] Setting up inception_4a/3x3_reduce
I0919 14:59:03.517710 30642 net.cpp:157] Top shape: 1 64 64 64 (262144)
I0919 14:59:03.517714 30642 net.cpp:165] Memory required for data: 1246756868
I0919 14:59:03.517719 30642 layer_factory.hpp:77] Creating layer inception_4a/3x3_reduce/bn
I0919 14:59:03.517722 30642 net.cpp:100] Creating Layer inception_4a/3x3_reduce/bn
I0919 14:59:03.517726 30642 net.cpp:434] inception_4a/3x3_reduce/bn <- inception_4a/3x3_reduce
I0919 14:59:03.517731 30642 net.cpp:408] inception_4a/3x3_reduce/bn -> inception_4a/3x3_reduce/bn
I0919 14:59:03.517900 30642 net.cpp:150] Setting up inception_4a/3x3_reduce/bn
I0919 14:59:03.517907 30642 net.cpp:157] Top shape: 1 64 64 64 (262144)
I0919 14:59:03.517910 30642 net.cpp:165] Memory required for data: 1247805444
I0919 14:59:03.517920 30642 layer_factory.hpp:77] Creating layer inception_4a/3x3_reduce/bn/sc
I0919 14:59:03.517925 30642 net.cpp:100] Creating Layer inception_4a/3x3_reduce/bn/sc
I0919 14:59:03.517928 30642 net.cpp:434] inception_4a/3x3_reduce/bn/sc <- inception_4a/3x3_reduce/bn
I0919 14:59:03.517933 30642 net.cpp:408] inception_4a/3x3_reduce/bn/sc -> inception_4a/3x3_reduce/bn/sc
I0919 14:59:03.517966 30642 layer_factory.hpp:77] Creating layer inception_4a/3x3_reduce/bn/sc
I0919 14:59:03.518067 30642 net.cpp:150] Setting up inception_4a/3x3_reduce/bn/sc
I0919 14:59:03.518074 30642 net.cpp:157] Top shape: 1 64 64 64 (262144)
I0919 14:59:03.518076 30642 net.cpp:165] Memory required for data: 1248854020
I0919 14:59:03.518082 30642 layer_factory.hpp:77] Creating layer inception_4a/3x3_reduce/bn/sc/relu
I0919 14:59:03.518091 30642 net.cpp:100] Creating Layer inception_4a/3x3_reduce/bn/sc/relu
I0919 14:59:03.518095 30642 net.cpp:434] inception_4a/3x3_reduce/bn/sc/relu <- inception_4a/3x3_reduce/bn/sc
I0919 14:59:03.518100 30642 net.cpp:395] inception_4a/3x3_reduce/bn/sc/relu -> inception_4a/3x3_reduce/bn/sc (in-place)
I0919 14:59:03.518105 30642 net.cpp:150] Setting up inception_4a/3x3_reduce/bn/sc/relu
I0919 14:59:03.518110 30642 net.cpp:157] Top shape: 1 64 64 64 (262144)
I0919 14:59:03.518112 30642 net.cpp:165] Memory required for data: 1249902596
I0919 14:59:03.518115 30642 layer_factory.hpp:77] Creating layer inception_4a/3x3
I0919 14:59:03.518123 30642 net.cpp:100] Creating Layer inception_4a/3x3
I0919 14:59:03.518127 30642 net.cpp:434] inception_4a/3x3 <- inception_4a/3x3_reduce/bn/sc
I0919 14:59:03.518133 30642 net.cpp:408] inception_4a/3x3 -> inception_4a/3x3
I0919 14:59:03.518571 30642 net.cpp:150] Setting up inception_4a/3x3
I0919 14:59:03.518579 30642 net.cpp:157] Top shape: 1 96 64 64 (393216)
I0919 14:59:03.518581 30642 net.cpp:165] Memory required for data: 1251475460
I0919 14:59:03.518587 30642 layer_factory.hpp:77] Creating layer inception_4a/3x3/bn
I0919 14:59:03.518594 30642 net.cpp:100] Creating Layer inception_4a/3x3/bn
I0919 14:59:03.518597 30642 net.cpp:434] inception_4a/3x3/bn <- inception_4a/3x3
I0919 14:59:03.518602 30642 net.cpp:408] inception_4a/3x3/bn -> inception_4a/3x3/bn
I0919 14:59:03.518767 30642 net.cpp:150] Setting up inception_4a/3x3/bn
I0919 14:59:03.518774 30642 net.cpp:157] Top shape: 1 96 64 64 (393216)
I0919 14:59:03.518776 30642 net.cpp:165] Memory required for data: 1253048324
I0919 14:59:03.518782 30642 layer_factory.hpp:77] Creating layer inception_4a/3x3/bn/sc
I0919 14:59:03.518787 30642 net.cpp:100] Creating Layer inception_4a/3x3/bn/sc
I0919 14:59:03.518790 30642 net.cpp:434] inception_4a/3x3/bn/sc <- inception_4a/3x3/bn
I0919 14:59:03.518797 30642 net.cpp:408] inception_4a/3x3/bn/sc -> inception_4a/3x3/bn/sc
I0919 14:59:03.518836 30642 layer_factory.hpp:77] Creating layer inception_4a/3x3/bn/sc
I0919 14:59:03.518935 30642 net.cpp:150] Setting up inception_4a/3x3/bn/sc
I0919 14:59:03.518941 30642 net.cpp:157] Top shape: 1 96 64 64 (393216)
I0919 14:59:03.518944 30642 net.cpp:165] Memory required for data: 1254621188
I0919 14:59:03.518951 30642 layer_factory.hpp:77] Creating layer inception_4a/3x3/bn/sc/relu
I0919 14:59:03.518965 30642 net.cpp:100] Creating Layer inception_4a/3x3/bn/sc/relu
I0919 14:59:03.518968 30642 net.cpp:434] inception_4a/3x3/bn/sc/relu <- inception_4a/3x3/bn/sc
I0919 14:59:03.518973 30642 net.cpp:395] inception_4a/3x3/bn/sc/relu -> inception_4a/3x3/bn/sc (in-place)
I0919 14:59:03.518980 30642 net.cpp:150] Setting up inception_4a/3x3/bn/sc/relu
I0919 14:59:03.518983 30642 net.cpp:157] Top shape: 1 96 64 64 (393216)
I0919 14:59:03.518985 30642 net.cpp:165] Memory required for data: 1256194052
I0919 14:59:03.518990 30642 layer_factory.hpp:77] Creating layer inception_4a/double3x3_reduce
I0919 14:59:03.518998 30642 net.cpp:100] Creating Layer inception_4a/double3x3_reduce
I0919 14:59:03.519002 30642 net.cpp:434] inception_4a/double3x3_reduce <- inception_3c/output_inception_3c/output_0_split_2
I0919 14:59:03.519009 30642 net.cpp:408] inception_4a/double3x3_reduce -> inception_4a/double3x3_reduce
I0919 14:59:03.519448 30642 net.cpp:150] Setting up inception_4a/double3x3_reduce
I0919 14:59:03.519455 30642 net.cpp:157] Top shape: 1 96 64 64 (393216)
I0919 14:59:03.519457 30642 net.cpp:165] Memory required for data: 1257766916
I0919 14:59:03.519464 30642 layer_factory.hpp:77] Creating layer inception_4a/double3x3_reduce/bn
I0919 14:59:03.519469 30642 net.cpp:100] Creating Layer inception_4a/double3x3_reduce/bn
I0919 14:59:03.519471 30642 net.cpp:434] inception_4a/double3x3_reduce/bn <- inception_4a/double3x3_reduce
I0919 14:59:03.519480 30642 net.cpp:408] inception_4a/double3x3_reduce/bn -> inception_4a/double3x3_reduce/bn
I0919 14:59:03.519647 30642 net.cpp:150] Setting up inception_4a/double3x3_reduce/bn
I0919 14:59:03.519655 30642 net.cpp:157] Top shape: 1 96 64 64 (393216)
I0919 14:59:03.519659 30642 net.cpp:165] Memory required for data: 1259339780
I0919 14:59:03.519665 30642 layer_factory.hpp:77] Creating layer inception_4a/double3x3_reduce/bn/sc
I0919 14:59:03.519670 30642 net.cpp:100] Creating Layer inception_4a/double3x3_reduce/bn/sc
I0919 14:59:03.519673 30642 net.cpp:434] inception_4a/double3x3_reduce/bn/sc <- inception_4a/double3x3_reduce/bn
I0919 14:59:03.519677 30642 net.cpp:408] inception_4a/double3x3_reduce/bn/sc -> inception_4a/double3x3_reduce/bn/sc
I0919 14:59:03.519709 30642 layer_factory.hpp:77] Creating layer inception_4a/double3x3_reduce/bn/sc
I0919 14:59:03.519809 30642 net.cpp:150] Setting up inception_4a/double3x3_reduce/bn/sc
I0919 14:59:03.519816 30642 net.cpp:157] Top shape: 1 96 64 64 (393216)
I0919 14:59:03.519819 30642 net.cpp:165] Memory required for data: 1260912644
I0919 14:59:03.519826 30642 layer_factory.hpp:77] Creating layer inception_4a/double3x3_reduce/bn/sc/relu
I0919 14:59:03.519831 30642 net.cpp:100] Creating Layer inception_4a/double3x3_reduce/bn/sc/relu
I0919 14:59:03.519835 30642 net.cpp:434] inception_4a/double3x3_reduce/bn/sc/relu <- inception_4a/double3x3_reduce/bn/sc
I0919 14:59:03.519842 30642 net.cpp:395] inception_4a/double3x3_reduce/bn/sc/relu -> inception_4a/double3x3_reduce/bn/sc (in-place)
I0919 14:59:03.519847 30642 net.cpp:150] Setting up inception_4a/double3x3_reduce/bn/sc/relu
I0919 14:59:03.519851 30642 net.cpp:157] Top shape: 1 96 64 64 (393216)
I0919 14:59:03.519855 30642 net.cpp:165] Memory required for data: 1262485508
I0919 14:59:03.519858 30642 layer_factory.hpp:77] Creating layer inception_4a/double3x3a
I0919 14:59:03.519865 30642 net.cpp:100] Creating Layer inception_4a/double3x3a
I0919 14:59:03.519870 30642 net.cpp:434] inception_4a/double3x3a <- inception_4a/double3x3_reduce/bn/sc
I0919 14:59:03.519876 30642 net.cpp:408] inception_4a/double3x3a -> inception_4a/double3x3a
I0919 14:59:03.521941 30642 net.cpp:150] Setting up inception_4a/double3x3a
I0919 14:59:03.521971 30642 net.cpp:157] Top shape: 1 128 64 64 (524288)
I0919 14:59:03.521975 30642 net.cpp:165] Memory required for data: 1264582660
I0919 14:59:03.521982 30642 layer_factory.hpp:77] Creating layer inception_4a/double3x3a/bn
I0919 14:59:03.521996 30642 net.cpp:100] Creating Layer inception_4a/double3x3a/bn
I0919 14:59:03.521999 30642 net.cpp:434] inception_4a/double3x3a/bn <- inception_4a/double3x3a
I0919 14:59:03.522006 30642 net.cpp:408] inception_4a/double3x3a/bn -> inception_4a/double3x3a/bn
I0919 14:59:03.522176 30642 net.cpp:150] Setting up inception_4a/double3x3a/bn
I0919 14:59:03.522184 30642 net.cpp:157] Top shape: 1 128 64 64 (524288)
I0919 14:59:03.522187 30642 net.cpp:165] Memory required for data: 1266679812
I0919 14:59:03.522193 30642 layer_factory.hpp:77] Creating layer inception_4a/double3x3a/bn/sc
I0919 14:59:03.522199 30642 net.cpp:100] Creating Layer inception_4a/double3x3a/bn/sc
I0919 14:59:03.522203 30642 net.cpp:434] inception_4a/double3x3a/bn/sc <- inception_4a/double3x3a/bn
I0919 14:59:03.522207 30642 net.cpp:408] inception_4a/double3x3a/bn/sc -> inception_4a/double3x3a/bn/sc
I0919 14:59:03.522240 30642 layer_factory.hpp:77] Creating layer inception_4a/double3x3a/bn/sc
I0919 14:59:03.522333 30642 net.cpp:150] Setting up inception_4a/double3x3a/bn/sc
I0919 14:59:03.522338 30642 net.cpp:157] Top shape: 1 128 64 64 (524288)
I0919 14:59:03.522341 30642 net.cpp:165] Memory required for data: 1268776964
I0919 14:59:03.522346 30642 layer_factory.hpp:77] Creating layer inception_4a/double3x3a/bn/sc/relu
I0919 14:59:03.522353 30642 net.cpp:100] Creating Layer inception_4a/double3x3a/bn/sc/relu
I0919 14:59:03.522356 30642 net.cpp:434] inception_4a/double3x3a/bn/sc/relu <- inception_4a/double3x3a/bn/sc
I0919 14:59:03.522361 30642 net.cpp:395] inception_4a/double3x3a/bn/sc/relu -> inception_4a/double3x3a/bn/sc (in-place)
I0919 14:59:03.522367 30642 net.cpp:150] Setting up inception_4a/double3x3a/bn/sc/relu
I0919 14:59:03.522372 30642 net.cpp:157] Top shape: 1 128 64 64 (524288)
I0919 14:59:03.522374 30642 net.cpp:165] Memory required for data: 1270874116
I0919 14:59:03.522377 30642 layer_factory.hpp:77] Creating layer inception_4a/double3x3b
I0919 14:59:03.522387 30642 net.cpp:100] Creating Layer inception_4a/double3x3b
I0919 14:59:03.522390 30642 net.cpp:434] inception_4a/double3x3b <- inception_4a/double3x3a/bn/sc
I0919 14:59:03.522400 30642 net.cpp:408] inception_4a/double3x3b -> inception_4a/double3x3b
I0919 14:59:03.523344 30642 net.cpp:150] Setting up inception_4a/double3x3b
I0919 14:59:03.523352 30642 net.cpp:157] Top shape: 1 128 64 64 (524288)
I0919 14:59:03.523355 30642 net.cpp:165] Memory required for data: 1272971268
I0919 14:59:03.523360 30642 layer_factory.hpp:77] Creating layer inception_4a/double3x3b/bn
I0919 14:59:03.523367 30642 net.cpp:100] Creating Layer inception_4a/double3x3b/bn
I0919 14:59:03.523370 30642 net.cpp:434] inception_4a/double3x3b/bn <- inception_4a/double3x3b
I0919 14:59:03.523376 30642 net.cpp:408] inception_4a/double3x3b/bn -> inception_4a/double3x3b/bn
I0919 14:59:03.523540 30642 net.cpp:150] Setting up inception_4a/double3x3b/bn
I0919 14:59:03.523546 30642 net.cpp:157] Top shape: 1 128 64 64 (524288)
I0919 14:59:03.523550 30642 net.cpp:165] Memory required for data: 1275068420
I0919 14:59:03.523556 30642 layer_factory.hpp:77] Creating layer inception_4a/double3x3b/bn/sc
I0919 14:59:03.523562 30642 net.cpp:100] Creating Layer inception_4a/double3x3b/bn/sc
I0919 14:59:03.523566 30642 net.cpp:434] inception_4a/double3x3b/bn/sc <- inception_4a/double3x3b/bn
I0919 14:59:03.523569 30642 net.cpp:408] inception_4a/double3x3b/bn/sc -> inception_4a/double3x3b/bn/sc
I0919 14:59:03.523602 30642 layer_factory.hpp:77] Creating layer inception_4a/double3x3b/bn/sc
I0919 14:59:03.523700 30642 net.cpp:150] Setting up inception_4a/double3x3b/bn/sc
I0919 14:59:03.523706 30642 net.cpp:157] Top shape: 1 128 64 64 (524288)
I0919 14:59:03.523710 30642 net.cpp:165] Memory required for data: 1277165572
I0919 14:59:03.523715 30642 layer_factory.hpp:77] Creating layer inception_4a/double3x3b/bn/sc/relu
I0919 14:59:03.523730 30642 net.cpp:100] Creating Layer inception_4a/double3x3b/bn/sc/relu
I0919 14:59:03.523735 30642 net.cpp:434] inception_4a/double3x3b/bn/sc/relu <- inception_4a/double3x3b/bn/sc
I0919 14:59:03.523738 30642 net.cpp:395] inception_4a/double3x3b/bn/sc/relu -> inception_4a/double3x3b/bn/sc (in-place)
I0919 14:59:03.523744 30642 net.cpp:150] Setting up inception_4a/double3x3b/bn/sc/relu
I0919 14:59:03.523748 30642 net.cpp:157] Top shape: 1 128 64 64 (524288)
I0919 14:59:03.523751 30642 net.cpp:165] Memory required for data: 1279262724
I0919 14:59:03.523754 30642 layer_factory.hpp:77] Creating layer inception_4a/pool
I0919 14:59:03.523762 30642 net.cpp:100] Creating Layer inception_4a/pool
I0919 14:59:03.523766 30642 net.cpp:434] inception_4a/pool <- inception_3c/output_inception_3c/output_0_split_3
I0919 14:59:03.523772 30642 net.cpp:408] inception_4a/pool -> inception_4a/pool
I0919 14:59:03.523792 30642 net.cpp:150] Setting up inception_4a/pool
I0919 14:59:03.523797 30642 net.cpp:157] Top shape: 1 576 64 64 (2359296)
I0919 14:59:03.523799 30642 net.cpp:165] Memory required for data: 1288699908
I0919 14:59:03.523802 30642 layer_factory.hpp:77] Creating layer inception_4a/pool_proj
I0919 14:59:03.523810 30642 net.cpp:100] Creating Layer inception_4a/pool_proj
I0919 14:59:03.523814 30642 net.cpp:434] inception_4a/pool_proj <- inception_4a/pool
I0919 14:59:03.523820 30642 net.cpp:408] inception_4a/pool_proj -> inception_4a/pool_proj
I0919 14:59:03.524336 30642 net.cpp:150] Setting up inception_4a/pool_proj
I0919 14:59:03.524343 30642 net.cpp:157] Top shape: 1 128 64 64 (524288)
I0919 14:59:03.524346 30642 net.cpp:165] Memory required for data: 1290797060
I0919 14:59:03.524351 30642 layer_factory.hpp:77] Creating layer inception_4a/pool_proj/bn
I0919 14:59:03.524358 30642 net.cpp:100] Creating Layer inception_4a/pool_proj/bn
I0919 14:59:03.524361 30642 net.cpp:434] inception_4a/pool_proj/bn <- inception_4a/pool_proj
I0919 14:59:03.524368 30642 net.cpp:408] inception_4a/pool_proj/bn -> inception_4a/pool_proj/bn
I0919 14:59:03.524530 30642 net.cpp:150] Setting up inception_4a/pool_proj/bn
I0919 14:59:03.524536 30642 net.cpp:157] Top shape: 1 128 64 64 (524288)
I0919 14:59:03.524539 30642 net.cpp:165] Memory required for data: 1292894212
I0919 14:59:03.524545 30642 layer_factory.hpp:77] Creating layer inception_4a/pool_proj/bn/sc
I0919 14:59:03.524581 30642 net.cpp:100] Creating Layer inception_4a/pool_proj/bn/sc
I0919 14:59:03.524585 30642 net.cpp:434] inception_4a/pool_proj/bn/sc <- inception_4a/pool_proj/bn
I0919 14:59:03.524590 30642 net.cpp:408] inception_4a/pool_proj/bn/sc -> inception_4a/pool_proj/bn/sc
I0919 14:59:03.524619 30642 layer_factory.hpp:77] Creating layer inception_4a/pool_proj/bn/sc
I0919 14:59:03.524709 30642 net.cpp:150] Setting up inception_4a/pool_proj/bn/sc
I0919 14:59:03.524716 30642 net.cpp:157] Top shape: 1 128 64 64 (524288)
I0919 14:59:03.524719 30642 net.cpp:165] Memory required for data: 1294991364
I0919 14:59:03.524725 30642 layer_factory.hpp:77] Creating layer inception_4a/pool_proj/bn/sc/relu
I0919 14:59:03.524729 30642 net.cpp:100] Creating Layer inception_4a/pool_proj/bn/sc/relu
I0919 14:59:03.524732 30642 net.cpp:434] inception_4a/pool_proj/bn/sc/relu <- inception_4a/pool_proj/bn/sc
I0919 14:59:03.524737 30642 net.cpp:395] inception_4a/pool_proj/bn/sc/relu -> inception_4a/pool_proj/bn/sc (in-place)
I0919 14:59:03.524744 30642 net.cpp:150] Setting up inception_4a/pool_proj/bn/sc/relu
I0919 14:59:03.524747 30642 net.cpp:157] Top shape: 1 128 64 64 (524288)
I0919 14:59:03.524750 30642 net.cpp:165] Memory required for data: 1297088516
I0919 14:59:03.524755 30642 layer_factory.hpp:77] Creating layer inception_4a/output
I0919 14:59:03.524762 30642 net.cpp:100] Creating Layer inception_4a/output
I0919 14:59:03.524766 30642 net.cpp:434] inception_4a/output <- inception_4a/1x1/bn/sc
I0919 14:59:03.524770 30642 net.cpp:434] inception_4a/output <- inception_4a/3x3/bn/sc
I0919 14:59:03.524775 30642 net.cpp:434] inception_4a/output <- inception_4a/double3x3b/bn/sc
I0919 14:59:03.524786 30642 net.cpp:434] inception_4a/output <- inception_4a/pool_proj/bn/sc
I0919 14:59:03.524791 30642 net.cpp:408] inception_4a/output -> inception_4a/output
I0919 14:59:03.524811 30642 net.cpp:150] Setting up inception_4a/output
I0919 14:59:03.524816 30642 net.cpp:157] Top shape: 1 576 64 64 (2359296)
I0919 14:59:03.524818 30642 net.cpp:165] Memory required for data: 1306525700
I0919 14:59:03.524821 30642 layer_factory.hpp:77] Creating layer inception_4a/output_inception_4a/output_0_split
I0919 14:59:03.524830 30642 net.cpp:100] Creating Layer inception_4a/output_inception_4a/output_0_split
I0919 14:59:03.524833 30642 net.cpp:434] inception_4a/output_inception_4a/output_0_split <- inception_4a/output
I0919 14:59:03.524839 30642 net.cpp:408] inception_4a/output_inception_4a/output_0_split -> inception_4a/output_inception_4a/output_0_split_0
I0919 14:59:03.524847 30642 net.cpp:408] inception_4a/output_inception_4a/output_0_split -> inception_4a/output_inception_4a/output_0_split_1
I0919 14:59:03.524853 30642 net.cpp:408] inception_4a/output_inception_4a/output_0_split -> inception_4a/output_inception_4a/output_0_split_2
I0919 14:59:03.524858 30642 net.cpp:408] inception_4a/output_inception_4a/output_0_split -> inception_4a/output_inception_4a/output_0_split_3
I0919 14:59:03.524907 30642 net.cpp:150] Setting up inception_4a/output_inception_4a/output_0_split
I0919 14:59:03.524915 30642 net.cpp:157] Top shape: 1 576 64 64 (2359296)
I0919 14:59:03.524919 30642 net.cpp:157] Top shape: 1 576 64 64 (2359296)
I0919 14:59:03.524922 30642 net.cpp:157] Top shape: 1 576 64 64 (2359296)
I0919 14:59:03.524926 30642 net.cpp:157] Top shape: 1 576 64 64 (2359296)
I0919 14:59:03.524929 30642 net.cpp:165] Memory required for data: 1344274436
I0919 14:59:03.524931 30642 layer_factory.hpp:77] Creating layer inception_4b/1x1
I0919 14:59:03.524942 30642 net.cpp:100] Creating Layer inception_4b/1x1
I0919 14:59:03.524946 30642 net.cpp:434] inception_4b/1x1 <- inception_4a/output_inception_4a/output_0_split_0
I0919 14:59:03.524951 30642 net.cpp:408] inception_4b/1x1 -> inception_4b/1x1
I0919 14:59:03.525653 30642 net.cpp:150] Setting up inception_4b/1x1
I0919 14:59:03.525660 30642 net.cpp:157] Top shape: 1 192 64 64 (786432)
I0919 14:59:03.525665 30642 net.cpp:165] Memory required for data: 1347420164
I0919 14:59:03.525668 30642 layer_factory.hpp:77] Creating layer inception_4b/1x1/bn
I0919 14:59:03.525674 30642 net.cpp:100] Creating Layer inception_4b/1x1/bn
I0919 14:59:03.525677 30642 net.cpp:434] inception_4b/1x1/bn <- inception_4b/1x1
I0919 14:59:03.525684 30642 net.cpp:408] inception_4b/1x1/bn -> inception_4b/1x1/bn
I0919 14:59:03.525851 30642 net.cpp:150] Setting up inception_4b/1x1/bn
I0919 14:59:03.525857 30642 net.cpp:157] Top shape: 1 192 64 64 (786432)
I0919 14:59:03.525859 30642 net.cpp:165] Memory required for data: 1350565892
I0919 14:59:03.525868 30642 layer_factory.hpp:77] Creating layer inception_4b/1x1/bn/sc
I0919 14:59:03.525874 30642 net.cpp:100] Creating Layer inception_4b/1x1/bn/sc
I0919 14:59:03.525877 30642 net.cpp:434] inception_4b/1x1/bn/sc <- inception_4b/1x1/bn
I0919 14:59:03.525884 30642 net.cpp:408] inception_4b/1x1/bn/sc -> inception_4b/1x1/bn/sc
I0919 14:59:03.525916 30642 layer_factory.hpp:77] Creating layer inception_4b/1x1/bn/sc
I0919 14:59:03.526016 30642 net.cpp:150] Setting up inception_4b/1x1/bn/sc
I0919 14:59:03.526022 30642 net.cpp:157] Top shape: 1 192 64 64 (786432)
I0919 14:59:03.526026 30642 net.cpp:165] Memory required for data: 1353711620
I0919 14:59:03.526031 30642 layer_factory.hpp:77] Creating layer inception_4b/1x1/bn/sc/relu
I0919 14:59:03.526036 30642 net.cpp:100] Creating Layer inception_4b/1x1/bn/sc/relu
I0919 14:59:03.526038 30642 net.cpp:434] inception_4b/1x1/bn/sc/relu <- inception_4b/1x1/bn/sc
I0919 14:59:03.526046 30642 net.cpp:395] inception_4b/1x1/bn/sc/relu -> inception_4b/1x1/bn/sc (in-place)
I0919 14:59:03.526051 30642 net.cpp:150] Setting up inception_4b/1x1/bn/sc/relu
I0919 14:59:03.526055 30642 net.cpp:157] Top shape: 1 192 64 64 (786432)
I0919 14:59:03.526057 30642 net.cpp:165] Memory required for data: 1356857348
I0919 14:59:03.526069 30642 layer_factory.hpp:77] Creating layer inception_4b/3x3_reduce
I0919 14:59:03.526079 30642 net.cpp:100] Creating Layer inception_4b/3x3_reduce
I0919 14:59:03.526083 30642 net.cpp:434] inception_4b/3x3_reduce <- inception_4a/output_inception_4a/output_0_split_1
I0919 14:59:03.526088 30642 net.cpp:408] inception_4b/3x3_reduce -> inception_4b/3x3_reduce
I0919 14:59:03.526531 30642 net.cpp:150] Setting up inception_4b/3x3_reduce
I0919 14:59:03.526538 30642 net.cpp:157] Top shape: 1 96 64 64 (393216)
I0919 14:59:03.526541 30642 net.cpp:165] Memory required for data: 1358430212
I0919 14:59:03.526546 30642 layer_factory.hpp:77] Creating layer inception_4b/3x3_reduce/bn
I0919 14:59:03.526553 30642 net.cpp:100] Creating Layer inception_4b/3x3_reduce/bn
I0919 14:59:03.526558 30642 net.cpp:434] inception_4b/3x3_reduce/bn <- inception_4b/3x3_reduce
I0919 14:59:03.526563 30642 net.cpp:408] inception_4b/3x3_reduce/bn -> inception_4b/3x3_reduce/bn
I0919 14:59:03.526738 30642 net.cpp:150] Setting up inception_4b/3x3_reduce/bn
I0919 14:59:03.526746 30642 net.cpp:157] Top shape: 1 96 64 64 (393216)
I0919 14:59:03.526748 30642 net.cpp:165] Memory required for data: 1360003076
I0919 14:59:03.526756 30642 layer_factory.hpp:77] Creating layer inception_4b/3x3_reduce/bn/sc
I0919 14:59:03.526760 30642 net.cpp:100] Creating Layer inception_4b/3x3_reduce/bn/sc
I0919 14:59:03.526763 30642 net.cpp:434] inception_4b/3x3_reduce/bn/sc <- inception_4b/3x3_reduce/bn
I0919 14:59:03.526768 30642 net.cpp:408] inception_4b/3x3_reduce/bn/sc -> inception_4b/3x3_reduce/bn/sc
I0919 14:59:03.526800 30642 layer_factory.hpp:77] Creating layer inception_4b/3x3_reduce/bn/sc
I0919 14:59:03.526897 30642 net.cpp:150] Setting up inception_4b/3x3_reduce/bn/sc
I0919 14:59:03.526906 30642 net.cpp:157] Top shape: 1 96 64 64 (393216)
I0919 14:59:03.526911 30642 net.cpp:165] Memory required for data: 1361575940
I0919 14:59:03.526916 30642 layer_factory.hpp:77] Creating layer inception_4b/3x3_reduce/bn/sc/relu
I0919 14:59:03.526919 30642 net.cpp:100] Creating Layer inception_4b/3x3_reduce/bn/sc/relu
I0919 14:59:03.526922 30642 net.cpp:434] inception_4b/3x3_reduce/bn/sc/relu <- inception_4b/3x3_reduce/bn/sc
I0919 14:59:03.526927 30642 net.cpp:395] inception_4b/3x3_reduce/bn/sc/relu -> inception_4b/3x3_reduce/bn/sc (in-place)
I0919 14:59:03.526932 30642 net.cpp:150] Setting up inception_4b/3x3_reduce/bn/sc/relu
I0919 14:59:03.526938 30642 net.cpp:157] Top shape: 1 96 64 64 (393216)
I0919 14:59:03.526940 30642 net.cpp:165] Memory required for data: 1363148804
I0919 14:59:03.526944 30642 layer_factory.hpp:77] Creating layer inception_4b/3x3
I0919 14:59:03.526962 30642 net.cpp:100] Creating Layer inception_4b/3x3
I0919 14:59:03.526965 30642 net.cpp:434] inception_4b/3x3 <- inception_4b/3x3_reduce/bn/sc
I0919 14:59:03.526973 30642 net.cpp:408] inception_4b/3x3 -> inception_4b/3x3
I0919 14:59:03.529000 30642 net.cpp:150] Setting up inception_4b/3x3
I0919 14:59:03.529013 30642 net.cpp:157] Top shape: 1 128 64 64 (524288)
I0919 14:59:03.529016 30642 net.cpp:165] Memory required for data: 1365245956
I0919 14:59:03.529023 30642 layer_factory.hpp:77] Creating layer inception_4b/3x3/bn
I0919 14:59:03.529031 30642 net.cpp:100] Creating Layer inception_4b/3x3/bn
I0919 14:59:03.529034 30642 net.cpp:434] inception_4b/3x3/bn <- inception_4b/3x3
I0919 14:59:03.529040 30642 net.cpp:408] inception_4b/3x3/bn -> inception_4b/3x3/bn
I0919 14:59:03.529211 30642 net.cpp:150] Setting up inception_4b/3x3/bn
I0919 14:59:03.529219 30642 net.cpp:157] Top shape: 1 128 64 64 (524288)
I0919 14:59:03.529222 30642 net.cpp:165] Memory required for data: 1367343108
I0919 14:59:03.529229 30642 layer_factory.hpp:77] Creating layer inception_4b/3x3/bn/sc
I0919 14:59:03.529234 30642 net.cpp:100] Creating Layer inception_4b/3x3/bn/sc
I0919 14:59:03.529238 30642 net.cpp:434] inception_4b/3x3/bn/sc <- inception_4b/3x3/bn
I0919 14:59:03.529242 30642 net.cpp:408] inception_4b/3x3/bn/sc -> inception_4b/3x3/bn/sc
I0919 14:59:03.529275 30642 layer_factory.hpp:77] Creating layer inception_4b/3x3/bn/sc
I0919 14:59:03.529392 30642 net.cpp:150] Setting up inception_4b/3x3/bn/sc
I0919 14:59:03.529399 30642 net.cpp:157] Top shape: 1 128 64 64 (524288)
I0919 14:59:03.529402 30642 net.cpp:165] Memory required for data: 1369440260
I0919 14:59:03.529409 30642 layer_factory.hpp:77] Creating layer inception_4b/3x3/bn/sc/relu
I0919 14:59:03.529414 30642 net.cpp:100] Creating Layer inception_4b/3x3/bn/sc/relu
I0919 14:59:03.529418 30642 net.cpp:434] inception_4b/3x3/bn/sc/relu <- inception_4b/3x3/bn/sc
I0919 14:59:03.529424 30642 net.cpp:395] inception_4b/3x3/bn/sc/relu -> inception_4b/3x3/bn/sc (in-place)
I0919 14:59:03.529430 30642 net.cpp:150] Setting up inception_4b/3x3/bn/sc/relu
I0919 14:59:03.529434 30642 net.cpp:157] Top shape: 1 128 64 64 (524288)
I0919 14:59:03.529438 30642 net.cpp:165] Memory required for data: 1371537412
I0919 14:59:03.529441 30642 layer_factory.hpp:77] Creating layer inception_4b/double3x3_reduce
I0919 14:59:03.529453 30642 net.cpp:100] Creating Layer inception_4b/double3x3_reduce
I0919 14:59:03.529455 30642 net.cpp:434] inception_4b/double3x3_reduce <- inception_4a/output_inception_4a/output_0_split_2
I0919 14:59:03.529462 30642 net.cpp:408] inception_4b/double3x3_reduce -> inception_4b/double3x3_reduce
I0919 14:59:03.529909 30642 net.cpp:150] Setting up inception_4b/double3x3_reduce
I0919 14:59:03.529917 30642 net.cpp:157] Top shape: 1 96 64 64 (393216)
I0919 14:59:03.529918 30642 net.cpp:165] Memory required for data: 1373110276
I0919 14:59:03.529924 30642 layer_factory.hpp:77] Creating layer inception_4b/double3x3_reduce/bn
I0919 14:59:03.529929 30642 net.cpp:100] Creating Layer inception_4b/double3x3_reduce/bn
I0919 14:59:03.529932 30642 net.cpp:434] inception_4b/double3x3_reduce/bn <- inception_4b/double3x3_reduce
I0919 14:59:03.529938 30642 net.cpp:408] inception_4b/double3x3_reduce/bn -> inception_4b/double3x3_reduce/bn
I0919 14:59:03.530139 30642 net.cpp:150] Setting up inception_4b/double3x3_reduce/bn
I0919 14:59:03.530148 30642 net.cpp:157] Top shape: 1 96 64 64 (393216)
I0919 14:59:03.530149 30642 net.cpp:165] Memory required for data: 1374683140
I0919 14:59:03.530156 30642 layer_factory.hpp:77] Creating layer inception_4b/double3x3_reduce/bn/sc
I0919 14:59:03.530164 30642 net.cpp:100] Creating Layer inception_4b/double3x3_reduce/bn/sc
I0919 14:59:03.530166 30642 net.cpp:434] inception_4b/double3x3_reduce/bn/sc <- inception_4b/double3x3_reduce/bn
I0919 14:59:03.530171 30642 net.cpp:408] inception_4b/double3x3_reduce/bn/sc -> inception_4b/double3x3_reduce/bn/sc
I0919 14:59:03.530205 30642 layer_factory.hpp:77] Creating layer inception_4b/double3x3_reduce/bn/sc
I0919 14:59:03.530313 30642 net.cpp:150] Setting up inception_4b/double3x3_reduce/bn/sc
I0919 14:59:03.530321 30642 net.cpp:157] Top shape: 1 96 64 64 (393216)
I0919 14:59:03.530324 30642 net.cpp:165] Memory required for data: 1376256004
I0919 14:59:03.530329 30642 layer_factory.hpp:77] Creating layer inception_4b/double3x3_reduce/bn/sc/relu
I0919 14:59:03.530335 30642 net.cpp:100] Creating Layer inception_4b/double3x3_reduce/bn/sc/relu
I0919 14:59:03.530339 30642 net.cpp:434] inception_4b/double3x3_reduce/bn/sc/relu <- inception_4b/double3x3_reduce/bn/sc
I0919 14:59:03.530344 30642 net.cpp:395] inception_4b/double3x3_reduce/bn/sc/relu -> inception_4b/double3x3_reduce/bn/sc (in-place)
I0919 14:59:03.530349 30642 net.cpp:150] Setting up inception_4b/double3x3_reduce/bn/sc/relu
I0919 14:59:03.530352 30642 net.cpp:157] Top shape: 1 96 64 64 (393216)
I0919 14:59:03.530355 30642 net.cpp:165] Memory required for data: 1377828868
I0919 14:59:03.530359 30642 layer_factory.hpp:77] Creating layer inception_4b/double3x3a
I0919 14:59:03.530367 30642 net.cpp:100] Creating Layer inception_4b/double3x3a
I0919 14:59:03.530371 30642 net.cpp:434] inception_4b/double3x3a <- inception_4b/double3x3_reduce/bn/sc
I0919 14:59:03.530378 30642 net.cpp:408] inception_4b/double3x3a -> inception_4b/double3x3a
I0919 14:59:03.531113 30642 net.cpp:150] Setting up inception_4b/double3x3a
I0919 14:59:03.531122 30642 net.cpp:157] Top shape: 1 128 64 64 (524288)
I0919 14:59:03.531137 30642 net.cpp:165] Memory required for data: 1379926020
I0919 14:59:03.531142 30642 layer_factory.hpp:77] Creating layer inception_4b/double3x3a/bn
I0919 14:59:03.531147 30642 net.cpp:100] Creating Layer inception_4b/double3x3a/bn
I0919 14:59:03.531152 30642 net.cpp:434] inception_4b/double3x3a/bn <- inception_4b/double3x3a
I0919 14:59:03.531159 30642 net.cpp:408] inception_4b/double3x3a/bn -> inception_4b/double3x3a/bn
I0919 14:59:03.531329 30642 net.cpp:150] Setting up inception_4b/double3x3a/bn
I0919 14:59:03.531335 30642 net.cpp:157] Top shape: 1 128 64 64 (524288)
I0919 14:59:03.531338 30642 net.cpp:165] Memory required for data: 1382023172
I0919 14:59:03.531345 30642 layer_factory.hpp:77] Creating layer inception_4b/double3x3a/bn/sc
I0919 14:59:03.531353 30642 net.cpp:100] Creating Layer inception_4b/double3x3a/bn/sc
I0919 14:59:03.531356 30642 net.cpp:434] inception_4b/double3x3a/bn/sc <- inception_4b/double3x3a/bn
I0919 14:59:03.531361 30642 net.cpp:408] inception_4b/double3x3a/bn/sc -> inception_4b/double3x3a/bn/sc
I0919 14:59:03.531392 30642 layer_factory.hpp:77] Creating layer inception_4b/double3x3a/bn/sc
I0919 14:59:03.531491 30642 net.cpp:150] Setting up inception_4b/double3x3a/bn/sc
I0919 14:59:03.531498 30642 net.cpp:157] Top shape: 1 128 64 64 (524288)
I0919 14:59:03.531502 30642 net.cpp:165] Memory required for data: 1384120324
I0919 14:59:03.531508 30642 layer_factory.hpp:77] Creating layer inception_4b/double3x3a/bn/sc/relu
I0919 14:59:03.531513 30642 net.cpp:100] Creating Layer inception_4b/double3x3a/bn/sc/relu
I0919 14:59:03.531517 30642 net.cpp:434] inception_4b/double3x3a/bn/sc/relu <- inception_4b/double3x3a/bn/sc
I0919 14:59:03.531522 30642 net.cpp:395] inception_4b/double3x3a/bn/sc/relu -> inception_4b/double3x3a/bn/sc (in-place)
I0919 14:59:03.531528 30642 net.cpp:150] Setting up inception_4b/double3x3a/bn/sc/relu
I0919 14:59:03.531533 30642 net.cpp:157] Top shape: 1 128 64 64 (524288)
I0919 14:59:03.531534 30642 net.cpp:165] Memory required for data: 1386217476
I0919 14:59:03.531538 30642 layer_factory.hpp:77] Creating layer inception_4b/double3x3b
I0919 14:59:03.531546 30642 net.cpp:100] Creating Layer inception_4b/double3x3b
I0919 14:59:03.531550 30642 net.cpp:434] inception_4b/double3x3b <- inception_4b/double3x3a/bn/sc
I0919 14:59:03.531555 30642 net.cpp:408] inception_4b/double3x3b -> inception_4b/double3x3b
I0919 14:59:03.532457 30642 net.cpp:150] Setting up inception_4b/double3x3b
I0919 14:59:03.532466 30642 net.cpp:157] Top shape: 1 128 64 64 (524288)
I0919 14:59:03.532469 30642 net.cpp:165] Memory required for data: 1388314628
I0919 14:59:03.532474 30642 layer_factory.hpp:77] Creating layer inception_4b/double3x3b/bn
I0919 14:59:03.532479 30642 net.cpp:100] Creating Layer inception_4b/double3x3b/bn
I0919 14:59:03.532482 30642 net.cpp:434] inception_4b/double3x3b/bn <- inception_4b/double3x3b
I0919 14:59:03.532490 30642 net.cpp:408] inception_4b/double3x3b/bn -> inception_4b/double3x3b/bn
I0919 14:59:03.532657 30642 net.cpp:150] Setting up inception_4b/double3x3b/bn
I0919 14:59:03.532665 30642 net.cpp:157] Top shape: 1 128 64 64 (524288)
I0919 14:59:03.532667 30642 net.cpp:165] Memory required for data: 1390411780
I0919 14:59:03.532673 30642 layer_factory.hpp:77] Creating layer inception_4b/double3x3b/bn/sc
I0919 14:59:03.532680 30642 net.cpp:100] Creating Layer inception_4b/double3x3b/bn/sc
I0919 14:59:03.532683 30642 net.cpp:434] inception_4b/double3x3b/bn/sc <- inception_4b/double3x3b/bn
I0919 14:59:03.532688 30642 net.cpp:408] inception_4b/double3x3b/bn/sc -> inception_4b/double3x3b/bn/sc
I0919 14:59:03.532717 30642 layer_factory.hpp:77] Creating layer inception_4b/double3x3b/bn/sc
I0919 14:59:03.532811 30642 net.cpp:150] Setting up inception_4b/double3x3b/bn/sc
I0919 14:59:03.532816 30642 net.cpp:157] Top shape: 1 128 64 64 (524288)
I0919 14:59:03.532819 30642 net.cpp:165] Memory required for data: 1392508932
I0919 14:59:03.532824 30642 layer_factory.hpp:77] Creating layer inception_4b/double3x3b/bn/sc/relu
I0919 14:59:03.532838 30642 net.cpp:100] Creating Layer inception_4b/double3x3b/bn/sc/relu
I0919 14:59:03.532841 30642 net.cpp:434] inception_4b/double3x3b/bn/sc/relu <- inception_4b/double3x3b/bn/sc
I0919 14:59:03.532848 30642 net.cpp:395] inception_4b/double3x3b/bn/sc/relu -> inception_4b/double3x3b/bn/sc (in-place)
I0919 14:59:03.532853 30642 net.cpp:150] Setting up inception_4b/double3x3b/bn/sc/relu
I0919 14:59:03.532857 30642 net.cpp:157] Top shape: 1 128 64 64 (524288)
I0919 14:59:03.532860 30642 net.cpp:165] Memory required for data: 1394606084
I0919 14:59:03.532863 30642 layer_factory.hpp:77] Creating layer inception_4b/pool
I0919 14:59:03.532868 30642 net.cpp:100] Creating Layer inception_4b/pool
I0919 14:59:03.532871 30642 net.cpp:434] inception_4b/pool <- inception_4a/output_inception_4a/output_0_split_3
I0919 14:59:03.532878 30642 net.cpp:408] inception_4b/pool -> inception_4b/pool
I0919 14:59:03.532897 30642 net.cpp:150] Setting up inception_4b/pool
I0919 14:59:03.532902 30642 net.cpp:157] Top shape: 1 576 64 64 (2359296)
I0919 14:59:03.532904 30642 net.cpp:165] Memory required for data: 1404043268
I0919 14:59:03.532907 30642 layer_factory.hpp:77] Creating layer inception_4b/pool_proj
I0919 14:59:03.532917 30642 net.cpp:100] Creating Layer inception_4b/pool_proj
I0919 14:59:03.532922 30642 net.cpp:434] inception_4b/pool_proj <- inception_4b/pool
I0919 14:59:03.532928 30642 net.cpp:408] inception_4b/pool_proj -> inception_4b/pool_proj
I0919 14:59:03.533454 30642 net.cpp:150] Setting up inception_4b/pool_proj
I0919 14:59:03.533463 30642 net.cpp:157] Top shape: 1 128 64 64 (524288)
I0919 14:59:03.533464 30642 net.cpp:165] Memory required for data: 1406140420
I0919 14:59:03.533469 30642 layer_factory.hpp:77] Creating layer inception_4b/pool_proj/bn
I0919 14:59:03.533474 30642 net.cpp:100] Creating Layer inception_4b/pool_proj/bn
I0919 14:59:03.533478 30642 net.cpp:434] inception_4b/pool_proj/bn <- inception_4b/pool_proj
I0919 14:59:03.533488 30642 net.cpp:408] inception_4b/pool_proj/bn -> inception_4b/pool_proj/bn
I0919 14:59:03.533655 30642 net.cpp:150] Setting up inception_4b/pool_proj/bn
I0919 14:59:03.533661 30642 net.cpp:157] Top shape: 1 128 64 64 (524288)
I0919 14:59:03.533664 30642 net.cpp:165] Memory required for data: 1408237572
I0919 14:59:03.533673 30642 layer_factory.hpp:77] Creating layer inception_4b/pool_proj/bn/sc
I0919 14:59:03.533679 30642 net.cpp:100] Creating Layer inception_4b/pool_proj/bn/sc
I0919 14:59:03.533682 30642 net.cpp:434] inception_4b/pool_proj/bn/sc <- inception_4b/pool_proj/bn
I0919 14:59:03.533687 30642 net.cpp:408] inception_4b/pool_proj/bn/sc -> inception_4b/pool_proj/bn/sc
I0919 14:59:03.533717 30642 layer_factory.hpp:77] Creating layer inception_4b/pool_proj/bn/sc
I0919 14:59:03.533816 30642 net.cpp:150] Setting up inception_4b/pool_proj/bn/sc
I0919 14:59:03.533823 30642 net.cpp:157] Top shape: 1 128 64 64 (524288)
I0919 14:59:03.533828 30642 net.cpp:165] Memory required for data: 1410334724
I0919 14:59:03.533831 30642 layer_factory.hpp:77] Creating layer inception_4b/pool_proj/bn/sc/relu
I0919 14:59:03.533836 30642 net.cpp:100] Creating Layer inception_4b/pool_proj/bn/sc/relu
I0919 14:59:03.533839 30642 net.cpp:434] inception_4b/pool_proj/bn/sc/relu <- inception_4b/pool_proj/bn/sc
I0919 14:59:03.533845 30642 net.cpp:395] inception_4b/pool_proj/bn/sc/relu -> inception_4b/pool_proj/bn/sc (in-place)
I0919 14:59:03.533851 30642 net.cpp:150] Setting up inception_4b/pool_proj/bn/sc/relu
I0919 14:59:03.533855 30642 net.cpp:157] Top shape: 1 128 64 64 (524288)
I0919 14:59:03.533857 30642 net.cpp:165] Memory required for data: 1412431876
I0919 14:59:03.533860 30642 layer_factory.hpp:77] Creating layer inception_4b/output
I0919 14:59:03.533866 30642 net.cpp:100] Creating Layer inception_4b/output
I0919 14:59:03.533869 30642 net.cpp:434] inception_4b/output <- inception_4b/1x1/bn/sc
I0919 14:59:03.533875 30642 net.cpp:434] inception_4b/output <- inception_4b/3x3/bn/sc
I0919 14:59:03.533880 30642 net.cpp:434] inception_4b/output <- inception_4b/double3x3b/bn/sc
I0919 14:59:03.533884 30642 net.cpp:434] inception_4b/output <- inception_4b/pool_proj/bn/sc
I0919 14:59:03.533898 30642 net.cpp:408] inception_4b/output -> inception_4b/output
I0919 14:59:03.533917 30642 net.cpp:150] Setting up inception_4b/output
I0919 14:59:03.533922 30642 net.cpp:157] Top shape: 1 576 64 64 (2359296)
I0919 14:59:03.533926 30642 net.cpp:165] Memory required for data: 1421869060
I0919 14:59:03.533928 30642 layer_factory.hpp:77] Creating layer inception_4b/output_inception_4b/output_0_split
I0919 14:59:03.533938 30642 net.cpp:100] Creating Layer inception_4b/output_inception_4b/output_0_split
I0919 14:59:03.533942 30642 net.cpp:434] inception_4b/output_inception_4b/output_0_split <- inception_4b/output
I0919 14:59:03.533947 30642 net.cpp:408] inception_4b/output_inception_4b/output_0_split -> inception_4b/output_inception_4b/output_0_split_0
I0919 14:59:03.533955 30642 net.cpp:408] inception_4b/output_inception_4b/output_0_split -> inception_4b/output_inception_4b/output_0_split_1
I0919 14:59:03.533962 30642 net.cpp:408] inception_4b/output_inception_4b/output_0_split -> inception_4b/output_inception_4b/output_0_split_2
I0919 14:59:03.533967 30642 net.cpp:408] inception_4b/output_inception_4b/output_0_split -> inception_4b/output_inception_4b/output_0_split_3
I0919 14:59:03.534014 30642 net.cpp:150] Setting up inception_4b/output_inception_4b/output_0_split
I0919 14:59:03.534021 30642 net.cpp:157] Top shape: 1 576 64 64 (2359296)
I0919 14:59:03.534024 30642 net.cpp:157] Top shape: 1 576 64 64 (2359296)
I0919 14:59:03.534029 30642 net.cpp:157] Top shape: 1 576 64 64 (2359296)
I0919 14:59:03.534032 30642 net.cpp:157] Top shape: 1 576 64 64 (2359296)
I0919 14:59:03.534035 30642 net.cpp:165] Memory required for data: 1459617796
I0919 14:59:03.534039 30642 layer_factory.hpp:77] Creating layer inception_4c/1x1
I0919 14:59:03.534049 30642 net.cpp:100] Creating Layer inception_4c/1x1
I0919 14:59:03.534051 30642 net.cpp:434] inception_4c/1x1 <- inception_4b/output_inception_4b/output_0_split_0
I0919 14:59:03.534060 30642 net.cpp:408] inception_4c/1x1 -> inception_4c/1x1
I0919 14:59:03.535962 30642 net.cpp:150] Setting up inception_4c/1x1
I0919 14:59:03.535976 30642 net.cpp:157] Top shape: 1 160 64 64 (655360)
I0919 14:59:03.535979 30642 net.cpp:165] Memory required for data: 1462239236
I0919 14:59:03.535986 30642 layer_factory.hpp:77] Creating layer inception_4c/1x1/bn
I0919 14:59:03.535995 30642 net.cpp:100] Creating Layer inception_4c/1x1/bn
I0919 14:59:03.536000 30642 net.cpp:434] inception_4c/1x1/bn <- inception_4c/1x1
I0919 14:59:03.536005 30642 net.cpp:408] inception_4c/1x1/bn -> inception_4c/1x1/bn
I0919 14:59:03.536187 30642 net.cpp:150] Setting up inception_4c/1x1/bn
I0919 14:59:03.536195 30642 net.cpp:157] Top shape: 1 160 64 64 (655360)
I0919 14:59:03.536198 30642 net.cpp:165] Memory required for data: 1464860676
I0919 14:59:03.536206 30642 layer_factory.hpp:77] Creating layer inception_4c/1x1/bn/sc
I0919 14:59:03.536212 30642 net.cpp:100] Creating Layer inception_4c/1x1/bn/sc
I0919 14:59:03.536216 30642 net.cpp:434] inception_4c/1x1/bn/sc <- inception_4c/1x1/bn
I0919 14:59:03.536222 30642 net.cpp:408] inception_4c/1x1/bn/sc -> inception_4c/1x1/bn/sc
I0919 14:59:03.536257 30642 layer_factory.hpp:77] Creating layer inception_4c/1x1/bn/sc
I0919 14:59:03.536365 30642 net.cpp:150] Setting up inception_4c/1x1/bn/sc
I0919 14:59:03.536371 30642 net.cpp:157] Top shape: 1 160 64 64 (655360)
I0919 14:59:03.536375 30642 net.cpp:165] Memory required for data: 1467482116
I0919 14:59:03.536381 30642 layer_factory.hpp:77] Creating layer inception_4c/1x1/bn/sc/relu
I0919 14:59:03.536386 30642 net.cpp:100] Creating Layer inception_4c/1x1/bn/sc/relu
I0919 14:59:03.536388 30642 net.cpp:434] inception_4c/1x1/bn/sc/relu <- inception_4c/1x1/bn/sc
I0919 14:59:03.536396 30642 net.cpp:395] inception_4c/1x1/bn/sc/relu -> inception_4c/1x1/bn/sc (in-place)
I0919 14:59:03.536401 30642 net.cpp:150] Setting up inception_4c/1x1/bn/sc/relu
I0919 14:59:03.536404 30642 net.cpp:157] Top shape: 1 160 64 64 (655360)
I0919 14:59:03.536407 30642 net.cpp:165] Memory required for data: 1470103556
I0919 14:59:03.536420 30642 layer_factory.hpp:77] Creating layer inception_4c/3x3_reduce
I0919 14:59:03.536430 30642 net.cpp:100] Creating Layer inception_4c/3x3_reduce
I0919 14:59:03.536434 30642 net.cpp:434] inception_4c/3x3_reduce <- inception_4b/output_inception_4b/output_0_split_1
I0919 14:59:03.536439 30642 net.cpp:408] inception_4c/3x3_reduce -> inception_4c/3x3_reduce
I0919 14:59:03.536967 30642 net.cpp:150] Setting up inception_4c/3x3_reduce
I0919 14:59:03.536974 30642 net.cpp:157] Top shape: 1 128 64 64 (524288)
I0919 14:59:03.536978 30642 net.cpp:165] Memory required for data: 1472200708
I0919 14:59:03.536981 30642 layer_factory.hpp:77] Creating layer inception_4c/3x3_reduce/bn
I0919 14:59:03.536988 30642 net.cpp:100] Creating Layer inception_4c/3x3_reduce/bn
I0919 14:59:03.536990 30642 net.cpp:434] inception_4c/3x3_reduce/bn <- inception_4c/3x3_reduce
I0919 14:59:03.536998 30642 net.cpp:408] inception_4c/3x3_reduce/bn -> inception_4c/3x3_reduce/bn
I0919 14:59:03.537163 30642 net.cpp:150] Setting up inception_4c/3x3_reduce/bn
I0919 14:59:03.537170 30642 net.cpp:157] Top shape: 1 128 64 64 (524288)
I0919 14:59:03.537173 30642 net.cpp:165] Memory required for data: 1474297860
I0919 14:59:03.537179 30642 layer_factory.hpp:77] Creating layer inception_4c/3x3_reduce/bn/sc
I0919 14:59:03.537186 30642 net.cpp:100] Creating Layer inception_4c/3x3_reduce/bn/sc
I0919 14:59:03.537190 30642 net.cpp:434] inception_4c/3x3_reduce/bn/sc <- inception_4c/3x3_reduce/bn
I0919 14:59:03.537195 30642 net.cpp:408] inception_4c/3x3_reduce/bn/sc -> inception_4c/3x3_reduce/bn/sc
I0919 14:59:03.537225 30642 layer_factory.hpp:77] Creating layer inception_4c/3x3_reduce/bn/sc
I0919 14:59:03.537324 30642 net.cpp:150] Setting up inception_4c/3x3_reduce/bn/sc
I0919 14:59:03.537333 30642 net.cpp:157] Top shape: 1 128 64 64 (524288)
I0919 14:59:03.537335 30642 net.cpp:165] Memory required for data: 1476395012
I0919 14:59:03.537341 30642 layer_factory.hpp:77] Creating layer inception_4c/3x3_reduce/bn/sc/relu
I0919 14:59:03.537346 30642 net.cpp:100] Creating Layer inception_4c/3x3_reduce/bn/sc/relu
I0919 14:59:03.537350 30642 net.cpp:434] inception_4c/3x3_reduce/bn/sc/relu <- inception_4c/3x3_reduce/bn/sc
I0919 14:59:03.537356 30642 net.cpp:395] inception_4c/3x3_reduce/bn/sc/relu -> inception_4c/3x3_reduce/bn/sc (in-place)
I0919 14:59:03.537361 30642 net.cpp:150] Setting up inception_4c/3x3_reduce/bn/sc/relu
I0919 14:59:03.537365 30642 net.cpp:157] Top shape: 1 128 64 64 (524288)
I0919 14:59:03.537369 30642 net.cpp:165] Memory required for data: 1478492164
I0919 14:59:03.537372 30642 layer_factory.hpp:77] Creating layer inception_4c/3x3
I0919 14:59:03.537381 30642 net.cpp:100] Creating Layer inception_4c/3x3
I0919 14:59:03.537385 30642 net.cpp:434] inception_4c/3x3 <- inception_4c/3x3_reduce/bn/sc
I0919 14:59:03.537391 30642 net.cpp:408] inception_4c/3x3 -> inception_4c/3x3
I0919 14:59:03.538470 30642 net.cpp:150] Setting up inception_4c/3x3
I0919 14:59:03.538480 30642 net.cpp:157] Top shape: 1 160 64 64 (655360)
I0919 14:59:03.538481 30642 net.cpp:165] Memory required for data: 1481113604
I0919 14:59:03.538487 30642 layer_factory.hpp:77] Creating layer inception_4c/3x3/bn
I0919 14:59:03.538496 30642 net.cpp:100] Creating Layer inception_4c/3x3/bn
I0919 14:59:03.538498 30642 net.cpp:434] inception_4c/3x3/bn <- inception_4c/3x3
I0919 14:59:03.538503 30642 net.cpp:408] inception_4c/3x3/bn -> inception_4c/3x3/bn
I0919 14:59:03.538682 30642 net.cpp:150] Setting up inception_4c/3x3/bn
I0919 14:59:03.538688 30642 net.cpp:157] Top shape: 1 160 64 64 (655360)
I0919 14:59:03.538691 30642 net.cpp:165] Memory required for data: 1483735044
I0919 14:59:03.538698 30642 layer_factory.hpp:77] Creating layer inception_4c/3x3/bn/sc
I0919 14:59:03.538703 30642 net.cpp:100] Creating Layer inception_4c/3x3/bn/sc
I0919 14:59:03.538707 30642 net.cpp:434] inception_4c/3x3/bn/sc <- inception_4c/3x3/bn
I0919 14:59:03.538712 30642 net.cpp:408] inception_4c/3x3/bn/sc -> inception_4c/3x3/bn/sc
I0919 14:59:03.538744 30642 layer_factory.hpp:77] Creating layer inception_4c/3x3/bn/sc
I0919 14:59:03.538856 30642 net.cpp:150] Setting up inception_4c/3x3/bn/sc
I0919 14:59:03.538866 30642 net.cpp:157] Top shape: 1 160 64 64 (655360)
I0919 14:59:03.538868 30642 net.cpp:165] Memory required for data: 1486356484
I0919 14:59:03.538877 30642 layer_factory.hpp:77] Creating layer inception_4c/3x3/bn/sc/relu
I0919 14:59:03.538882 30642 net.cpp:100] Creating Layer inception_4c/3x3/bn/sc/relu
I0919 14:59:03.538885 30642 net.cpp:434] inception_4c/3x3/bn/sc/relu <- inception_4c/3x3/bn/sc
I0919 14:59:03.538889 30642 net.cpp:395] inception_4c/3x3/bn/sc/relu -> inception_4c/3x3/bn/sc (in-place)
I0919 14:59:03.538894 30642 net.cpp:150] Setting up inception_4c/3x3/bn/sc/relu
I0919 14:59:03.538898 30642 net.cpp:157] Top shape: 1 160 64 64 (655360)
I0919 14:59:03.538902 30642 net.cpp:165] Memory required for data: 1488977924
I0919 14:59:03.538904 30642 layer_factory.hpp:77] Creating layer inception_4c/double3x3_reduce
I0919 14:59:03.538914 30642 net.cpp:100] Creating Layer inception_4c/double3x3_reduce
I0919 14:59:03.538918 30642 net.cpp:434] inception_4c/double3x3_reduce <- inception_4b/output_inception_4b/output_0_split_2
I0919 14:59:03.538928 30642 net.cpp:408] inception_4c/double3x3_reduce -> inception_4c/double3x3_reduce
I0919 14:59:03.539460 30642 net.cpp:150] Setting up inception_4c/double3x3_reduce
I0919 14:59:03.539469 30642 net.cpp:157] Top shape: 1 128 64 64 (524288)
I0919 14:59:03.539471 30642 net.cpp:165] Memory required for data: 1491075076
I0919 14:59:03.539476 30642 layer_factory.hpp:77] Creating layer inception_4c/double3x3_reduce/bn
I0919 14:59:03.539481 30642 net.cpp:100] Creating Layer inception_4c/double3x3_reduce/bn
I0919 14:59:03.539484 30642 net.cpp:434] inception_4c/double3x3_reduce/bn <- inception_4c/double3x3_reduce
I0919 14:59:03.539491 30642 net.cpp:408] inception_4c/double3x3_reduce/bn -> inception_4c/double3x3_reduce/bn
I0919 14:59:03.539659 30642 net.cpp:150] Setting up inception_4c/double3x3_reduce/bn
I0919 14:59:03.539666 30642 net.cpp:157] Top shape: 1 128 64 64 (524288)
I0919 14:59:03.539669 30642 net.cpp:165] Memory required for data: 1493172228
I0919 14:59:03.539675 30642 layer_factory.hpp:77] Creating layer inception_4c/double3x3_reduce/bn/sc
I0919 14:59:03.539680 30642 net.cpp:100] Creating Layer inception_4c/double3x3_reduce/bn/sc
I0919 14:59:03.539683 30642 net.cpp:434] inception_4c/double3x3_reduce/bn/sc <- inception_4c/double3x3_reduce/bn
I0919 14:59:03.539690 30642 net.cpp:408] inception_4c/double3x3_reduce/bn/sc -> inception_4c/double3x3_reduce/bn/sc
I0919 14:59:03.539722 30642 layer_factory.hpp:77] Creating layer inception_4c/double3x3_reduce/bn/sc
I0919 14:59:03.539819 30642 net.cpp:150] Setting up inception_4c/double3x3_reduce/bn/sc
I0919 14:59:03.539825 30642 net.cpp:157] Top shape: 1 128 64 64 (524288)
I0919 14:59:03.539829 30642 net.cpp:165] Memory required for data: 1495269380
I0919 14:59:03.539834 30642 layer_factory.hpp:77] Creating layer inception_4c/double3x3_reduce/bn/sc/relu
I0919 14:59:03.539839 30642 net.cpp:100] Creating Layer inception_4c/double3x3_reduce/bn/sc/relu
I0919 14:59:03.539841 30642 net.cpp:434] inception_4c/double3x3_reduce/bn/sc/relu <- inception_4c/double3x3_reduce/bn/sc
I0919 14:59:03.539846 30642 net.cpp:395] inception_4c/double3x3_reduce/bn/sc/relu -> inception_4c/double3x3_reduce/bn/sc (in-place)
I0919 14:59:03.539852 30642 net.cpp:150] Setting up inception_4c/double3x3_reduce/bn/sc/relu
I0919 14:59:03.539855 30642 net.cpp:157] Top shape: 1 128 64 64 (524288)
I0919 14:59:03.539858 30642 net.cpp:165] Memory required for data: 1497366532
I0919 14:59:03.539860 30642 layer_factory.hpp:77] Creating layer inception_4c/double3x3a
I0919 14:59:03.539870 30642 net.cpp:100] Creating Layer inception_4c/double3x3a
I0919 14:59:03.539872 30642 net.cpp:434] inception_4c/double3x3a <- inception_4c/double3x3_reduce/bn/sc
I0919 14:59:03.539880 30642 net.cpp:408] inception_4c/double3x3a -> inception_4c/double3x3a
I0919 14:59:03.542215 30642 net.cpp:150] Setting up inception_4c/double3x3a
I0919 14:59:03.542229 30642 net.cpp:157] Top shape: 1 160 64 64 (655360)
I0919 14:59:03.542243 30642 net.cpp:165] Memory required for data: 1499987972
I0919 14:59:03.542249 30642 layer_factory.hpp:77] Creating layer inception_4c/double3x3a/bn
I0919 14:59:03.542258 30642 net.cpp:100] Creating Layer inception_4c/double3x3a/bn
I0919 14:59:03.542263 30642 net.cpp:434] inception_4c/double3x3a/bn <- inception_4c/double3x3a
I0919 14:59:03.542268 30642 net.cpp:408] inception_4c/double3x3a/bn -> inception_4c/double3x3a/bn
I0919 14:59:03.542454 30642 net.cpp:150] Setting up inception_4c/double3x3a/bn
I0919 14:59:03.542459 30642 net.cpp:157] Top shape: 1 160 64 64 (655360)
I0919 14:59:03.542462 30642 net.cpp:165] Memory required for data: 1502609412
I0919 14:59:03.542469 30642 layer_factory.hpp:77] Creating layer inception_4c/double3x3a/bn/sc
I0919 14:59:03.542475 30642 net.cpp:100] Creating Layer inception_4c/double3x3a/bn/sc
I0919 14:59:03.542479 30642 net.cpp:434] inception_4c/double3x3a/bn/sc <- inception_4c/double3x3a/bn
I0919 14:59:03.542486 30642 net.cpp:408] inception_4c/double3x3a/bn/sc -> inception_4c/double3x3a/bn/sc
I0919 14:59:03.542520 30642 layer_factory.hpp:77] Creating layer inception_4c/double3x3a/bn/sc
I0919 14:59:03.542625 30642 net.cpp:150] Setting up inception_4c/double3x3a/bn/sc
I0919 14:59:03.542634 30642 net.cpp:157] Top shape: 1 160 64 64 (655360)
I0919 14:59:03.542637 30642 net.cpp:165] Memory required for data: 1505230852
I0919 14:59:03.542642 30642 layer_factory.hpp:77] Creating layer inception_4c/double3x3a/bn/sc/relu
I0919 14:59:03.542647 30642 net.cpp:100] Creating Layer inception_4c/double3x3a/bn/sc/relu
I0919 14:59:03.542651 30642 net.cpp:434] inception_4c/double3x3a/bn/sc/relu <- inception_4c/double3x3a/bn/sc
I0919 14:59:03.542659 30642 net.cpp:395] inception_4c/double3x3a/bn/sc/relu -> inception_4c/double3x3a/bn/sc (in-place)
I0919 14:59:03.542663 30642 net.cpp:150] Setting up inception_4c/double3x3a/bn/sc/relu
I0919 14:59:03.542667 30642 net.cpp:157] Top shape: 1 160 64 64 (655360)
I0919 14:59:03.542670 30642 net.cpp:165] Memory required for data: 1507852292
I0919 14:59:03.542675 30642 layer_factory.hpp:77] Creating layer inception_4c/double3x3b
I0919 14:59:03.542682 30642 net.cpp:100] Creating Layer inception_4c/double3x3b
I0919 14:59:03.542685 30642 net.cpp:434] inception_4c/double3x3b <- inception_4c/double3x3a/bn/sc
I0919 14:59:03.542690 30642 net.cpp:408] inception_4c/double3x3b -> inception_4c/double3x3b
…
I0919 14:59:03.566339 30642 net.cpp:165] Memory required for data: 1718616068
I0919 14:59:03.566344 30642 layer_factory.hpp:77] Creating layer inception_4e/double3x3_reduce/bn/sc/relu
I0919 14:59:03.566351 30642 net.cpp:100] Creating Layer inception_4e/double3x3_reduce/bn/sc/relu
I0919 14:59:03.566354 30642 net.cpp:434] inception_4e/double3x3_reduce/bn/sc/relu <- inception_4e/double3x3_reduce/bn/sc
I0919 14:59:03.566360 30642 net.cpp:395] inception_4e/double3x3_reduce/bn/sc/relu -> inception_4e/double3x3_reduce/bn/sc (in-place)
I0919 14:59:03.566368 30642 net.cpp:150] Setting up inception_4e/double3x3_reduce/bn/sc/relu
I0919 14:59:03.566373 30642 net.cpp:157] Top shape: 1 192 64 64 (786432)
I0919 14:59:03.566375 30642 net.cpp:165] Memory required for data: 1721761796
I0919 14:59:03.566378 30642 layer_factory.hpp:77] Creating layer inception_4e/double3x3a
I0919 14:59:03.566388 30642 net.cpp:100] Creating Layer inception_4e/double3x3a
I0919 14:59:03.566392 30642 net.cpp:434] inception_4e/double3x3a <- inception_4e/double3x3_reduce/bn/sc
I0919 14:59:03.566397 30642 net.cpp:408] inception_4e/double3x3a -> inception_4e/double3x3a
I0919 14:59:03.569963 30642 net.cpp:150] Setting up inception_4e/double3x3a
I0919 14:59:03.569977 30642 net.cpp:157] Top shape: 1 256 64 64 (1048576)
I0919 14:59:03.569981 30642 net.cpp:165] Memory required for data: 1725956100
I0919 14:59:03.569989 30642 layer_factory.hpp:77] Creating layer inception_4e/double3x3a/bn
I0919 14:59:03.569998 30642 net.cpp:100] Creating Layer inception_4e/double3x3a/bn
I0919 14:59:03.570003 30642 net.cpp:434] inception_4e/double3x3a/bn <- inception_4e/double3x3a
I0919 14:59:03.570009 30642 net.cpp:408] inception_4e/double3x3a/bn -> inception_4e/double3x3a/bn
I0919 14:59:03.570191 30642 net.cpp:150] Setting up inception_4e/double3x3a/bn
I0919 14:59:03.570197 30642 net.cpp:157] Top shape: 1 256 64 64 (1048576)
I0919 14:59:03.570200 30642 net.cpp:165] Memory required for data: 1730150404
I0919 14:59:03.570207 30642 layer_factory.hpp:77] Creating layer inception_4e/double3x3a/bn/sc
I0919 14:59:03.570214 30642 net.cpp:100] Creating Layer inception_4e/double3x3a/bn/sc
I0919 14:59:03.570217 30642 net.cpp:434] inception_4e/double3x3a/bn/sc <- inception_4e/double3x3a/bn
I0919 14:59:03.570221 30642 net.cpp:408] inception_4e/double3x3a/bn/sc -> inception_4e/double3x3a/bn/sc
I0919 14:59:03.570256 30642 layer_factory.hpp:77] Creating layer inception_4e/double3x3a/bn/sc
I0919 14:59:03.570369 30642 net.cpp:150] Setting up inception_4e/double3x3a/bn/sc
I0919 14:59:03.570374 30642 net.cpp:157] Top shape: 1 256 64 64 (1048576)
I0919 14:59:03.570377 30642 net.cpp:165] Memory required for data: 1734344708
I0919 14:59:03.570382 30642 layer_factory.hpp:77] Creating layer inception_4e/double3x3a/bn/sc/relu
I0919 14:59:03.570389 30642 net.cpp:100] Creating Layer inception_4e/double3x3a/bn/sc/relu
I0919 14:59:03.570394 30642 net.cpp:434] inception_4e/double3x3a/bn/sc/relu <- inception_4e/double3x3a/bn/sc
I0919 14:59:03.570400 30642 net.cpp:395] inception_4e/double3x3a/bn/sc/relu -> inception_4e/double3x3a/bn/sc (in-place)
I0919 14:59:03.570408 30642 net.cpp:150] Setting up inception_4e/double3x3a/bn/sc/relu
I0919 14:59:03.570412 30642 net.cpp:157] Top shape: 1 256 64 64 (1048576)
I0919 14:59:03.570415 30642 net.cpp:165] Memory required for data: 1738539012
I0919 14:59:03.570418 30642 layer_factory.hpp:77] Creating layer inception_4e/double3x3b
I0919 14:59:03.570427 30642 net.cpp:100] Creating Layer inception_4e/double3x3b
I0919 14:59:03.570431 30642 net.cpp:434] inception_4e/double3x3b <- inception_4e/double3x3a/bn/sc
I0919 14:59:03.570438 30642 net.cpp:408] inception_4e/double3x3b -> inception_4e/double3x3b
I0919 14:59:03.574775 30642 net.cpp:150] Setting up inception_4e/double3x3b
I0919 14:59:03.574790 30642 net.cpp:157] Top shape: 1 256 32 32 (262144)
I0919 14:59:03.574793 30642 net.cpp:165] Memory required for data: 1739587588
I0919 14:59:03.574813 30642 layer_factory.hpp:77] Creating layer inception_4e/double3x3b/bn
I0919 14:59:03.574820 30642 net.cpp:100] Creating Layer inception_4e/double3x3b/bn
I0919 14:59:03.574826 30642 net.cpp:434] inception_4e/double3x3b/bn <- inception_4e/double3x3b
I0919 14:59:03.574832 30642 net.cpp:408] inception_4e/double3x3b/bn -> inception_4e/double3x3b/bn
I0919 14:59:03.575013 30642 net.cpp:150] Setting up inception_4e/double3x3b/bn
I0919 14:59:03.575019 30642 net.cpp:157] Top shape: 1 256 32 32 (262144)
I0919 14:59:03.575022 30642 net.cpp:165] Memory required for data: 1740636164
I0919 14:59:03.575029 30642 layer_factory.hpp:77] Creating layer inception_4e/double3x3b/bn/sc
I0919 14:59:03.575037 30642 net.cpp:100] Creating Layer inception_4e/double3x3b/bn/sc
I0919 14:59:03.575042 30642 net.cpp:434] inception_4e/double3x3b/bn/sc <- inception_4e/double3x3b/bn
I0919 14:59:03.575047 30642 net.cpp:408] inception_4e/double3x3b/bn/sc -> inception_4e/double3x3b/bn/sc
I0919 14:59:03.575078 30642 layer_factory.hpp:77] Creating layer inception_4e/double3x3b/bn/sc
I0919 14:59:03.575165 30642 net.cpp:150] Setting up inception_4e/double3x3b/bn/sc
I0919 14:59:03.575171 30642 net.cpp:157] Top shape: 1 256 32 32 (262144)
I0919 14:59:03.575176 30642 net.cpp:165] Memory required for data: 1741684740
I0919 14:59:03.575181 30642 layer_factory.hpp:77] Creating layer inception_4e/double3x3b/bn/sc/relu
I0919 14:59:03.575201 30642 net.cpp:100] Creating Layer inception_4e/double3x3b/bn/sc/relu
I0919 14:59:03.575203 30642 net.cpp:434] inception_4e/double3x3b/bn/sc/relu <- inception_4e/double3x3b/bn/sc
I0919 14:59:03.575211 30642 net.cpp:395] inception_4e/double3x3b/bn/sc/relu -> inception_4e/double3x3b/bn/sc (in-place)
I0919 14:59:03.575215 30642 net.cpp:150] Setting up inception_4e/double3x3b/bn/sc/relu
I0919 14:59:03.575219 30642 net.cpp:157] Top shape: 1 256 32 32 (262144)
I0919 14:59:03.575222 30642 net.cpp:165] Memory required for data: 1742733316
I0919 14:59:03.575225 30642 layer_factory.hpp:77] Creating layer inception_4e/pool
I0919 14:59:03.575232 30642 net.cpp:100] Creating Layer inception_4e/pool
I0919 14:59:03.575235 30642 net.cpp:434] inception_4e/pool <- inception_4d/output_inception_4d/output_0_split_2
I0919 14:59:03.575242 30642 net.cpp:408] inception_4e/pool -> inception_4e/pool
I0919 14:59:03.575278 30642 net.cpp:150] Setting up inception_4e/pool
I0919 14:59:03.575284 30642 net.cpp:157] Top shape: 1 576 32 32 (589824)
I0919 14:59:03.575286 30642 net.cpp:165] Memory required for data: 1745092612
I0919 14:59:03.575289 30642 layer_factory.hpp:77] Creating layer inception_4e/output
I0919 14:59:03.575295 30642 net.cpp:100] Creating Layer inception_4e/output
I0919 14:59:03.575299 30642 net.cpp:434] inception_4e/output <- inception_4e/3x3/bn/sc
I0919 14:59:03.575304 30642 net.cpp:434] inception_4e/output <- inception_4e/double3x3b/bn/sc
I0919 14:59:03.575307 30642 net.cpp:434] inception_4e/output <- inception_4e/pool
I0919 14:59:03.575312 30642 net.cpp:408] inception_4e/output -> inception_4e/output
I0919 14:59:03.575333 30642 net.cpp:150] Setting up inception_4e/output
I0919 14:59:03.575340 30642 net.cpp:157] Top shape: 1 1024 32 32 (1048576)
I0919 14:59:03.575342 30642 net.cpp:165] Memory required for data: 1749286916
I0919 14:59:03.575345 30642 layer_factory.hpp:77] Creating layer inception_4e/output_inception_4e/output_0_split
I0919 14:59:03.575353 30642 net.cpp:100] Creating Layer inception_4e/output_inception_4e/output_0_split
I0919 14:59:03.575357 30642 net.cpp:434] inception_4e/output_inception_4e/output_0_split <- inception_4e/output
I0919 14:59:03.575361 30642 net.cpp:408] inception_4e/output_inception_4e/output_0_split -> inception_4e/output_inception_4e/output_0_split_0
I0919 14:59:03.575371 30642 net.cpp:408] inception_4e/output_inception_4e/output_0_split -> inception_4e/output_inception_4e/output_0_split_1
I0919 14:59:03.575376 30642 net.cpp:408] inception_4e/output_inception_4e/output_0_split -> inception_4e/output_inception_4e/output_0_split_2
I0919 14:59:03.575386 30642 net.cpp:408] inception_4e/output_inception_4e/output_0_split -> inception_4e/output_inception_4e/output_0_split_3
I0919 14:59:03.575445 30642 net.cpp:150] Setting up inception_4e/output_inception_4e/output_0_split
I0919 14:59:03.575453 30642 net.cpp:157] Top shape: 1 1024 32 32 (1048576)
I0919 14:59:03.575457 30642 net.cpp:157] Top shape: 1 1024 32 32 (1048576)
I0919 14:59:03.575460 30642 net.cpp:157] Top shape: 1 1024 32 32 (1048576)
I0919 14:59:03.575464 30642 net.cpp:157] Top shape: 1 1024 32 32 (1048576)
I0919 14:59:03.575467 30642 net.cpp:165] Memory required for data: 1766064132
I0919 14:59:03.575470 30642 layer_factory.hpp:77] Creating layer inception_5a/1x1
I0919 14:59:03.575484 30642 net.cpp:100] Creating Layer inception_5a/1x1
I0919 14:59:03.575487 30642 net.cpp:434] inception_5a/1x1 <- inception_4e/output_inception_4e/output_0_split_0
I0919 14:59:03.575493 30642 net.cpp:408] inception_5a/1x1 -> inception_5a/1x1
I0919 14:59:03.578662 30642 net.cpp:150] Setting up inception_5a/1x1
I0919 14:59:03.578676 30642 net.cpp:157] Top shape: 1 352 32 32 (360448)
I0919 14:59:03.578680 30642 net.cpp:165] Memory required for data: 1767505924
I0919 14:59:03.578687 30642 layer_factory.hpp:77] Creating layer inception_5a/1x1/bn
I0919 14:59:03.578694 30642 net.cpp:100] Creating Layer inception_5a/1x1/bn
I0919 14:59:03.578698 30642 net.cpp:434] inception_5a/1x1/bn <- inception_5a/1x1
I0919 14:59:03.578706 30642 net.cpp:408] inception_5a/1x1/bn -> inception_5a/1x1/bn
I0919 14:59:03.578920 30642 net.cpp:150] Setting up inception_5a/1x1/bn
I0919 14:59:03.578927 30642 net.cpp:157] Top shape: 1 352 32 32 (360448)
I0919 14:59:03.578929 30642 net.cpp:165] Memory required for data: 1768947716
I0919 14:59:03.578935 30642 layer_factory.hpp:77] Creating layer inception_5a/1x1/bn/sc
I0919 14:59:03.578944 30642 net.cpp:100] Creating Layer inception_5a/1x1/bn/sc
I0919 14:59:03.578948 30642 net.cpp:434] inception_5a/1x1/bn/sc <- inception_5a/1x1/bn
I0919 14:59:03.578964 30642 net.cpp:408] inception_5a/1x1/bn/sc -> inception_5a/1x1/bn/sc
I0919 14:59:03.578994 30642 layer_factory.hpp:77] Creating layer inception_5a/1x1/bn/sc
I0919 14:59:03.579098 30642 net.cpp:150] Setting up inception_5a/1x1/bn/sc
I0919 14:59:03.579105 30642 net.cpp:157] Top shape: 1 352 32 32 (360448)
I0919 14:59:03.579108 30642 net.cpp:165] Memory required for data: 1770389508
I0919 14:59:03.579113 30642 layer_factory.hpp:77] Creating layer inception_5a/1x1/bn/sc/relu
I0919 14:59:03.579121 30642 net.cpp:100] Creating Layer inception_5a/1x1/bn/sc/relu
I0919 14:59:03.579124 30642 net.cpp:434] inception_5a/1x1/bn/sc/relu <- inception_5a/1x1/bn/sc
I0919 14:59:03.579130 30642 net.cpp:395] inception_5a/1x1/bn/sc/relu -> inception_5a/1x1/bn/sc (in-place)
I0919 14:59:03.579135 30642 net.cpp:150] Setting up inception_5a/1x1/bn/sc/relu
I0919 14:59:03.579140 30642 net.cpp:157] Top shape: 1 352 32 32 (360448)
I0919 14:59:03.579143 30642 net.cpp:165] Memory required for data: 1771831300
I0919 14:59:03.579145 30642 layer_factory.hpp:77] Creating layer inception_5a/3x3_reduce
I0919 14:59:03.579154 30642 net.cpp:100] Creating Layer inception_5a/3x3_reduce
I0919 14:59:03.579159 30642 net.cpp:434] inception_5a/3x3_reduce <- inception_4e/output_inception_4e/output_0_split_1
I0919 14:59:03.579169 30642 net.cpp:408] inception_5a/3x3_reduce -> inception_5a/3x3_reduce
I0919 14:59:03.580380 30642 net.cpp:150] Setting up inception_5a/3x3_reduce
I0919 14:59:03.580389 30642 net.cpp:157] Top shape: 1 192 32 32 (196608)
I0919 14:59:03.580394 30642 net.cpp:165] Memory required for data: 1772617732
I0919 14:59:03.580400 30642 layer_factory.hpp:77] Creating layer inception_5a/3x3_reduce/bn
I0919 14:59:03.580408 30642 net.cpp:100] Creating Layer inception_5a/3x3_reduce/bn
I0919 14:59:03.580412 30642 net.cpp:434] inception_5a/3x3_reduce/bn <- inception_5a/3x3_reduce
I0919 14:59:03.580418 30642 net.cpp:408] inception_5a/3x3_reduce/bn -> inception_5a/3x3_reduce/bn
I0919 14:59:03.580600 30642 net.cpp:150] Setting up inception_5a/3x3_reduce/bn
I0919 14:59:03.580606 30642 net.cpp:157] Top shape: 1 192 32 32 (196608)
I0919 14:59:03.580623 30642 net.cpp:165] Memory required for data: 1773404164
I0919 14:59:03.580631 30642 layer_factory.hpp:77] Creating layer inception_5a/3x3_reduce/bn/sc
I0919 14:59:03.580636 30642 net.cpp:100] Creating Layer inception_5a/3x3_reduce/bn/sc
I0919 14:59:03.580639 30642 net.cpp:434] inception_5a/3x3_reduce/bn/sc <- inception_5a/3x3_reduce/bn
I0919 14:59:03.580646 30642 net.cpp:408] inception_5a/3x3_reduce/bn/sc -> inception_5a/3x3_reduce/bn/sc
I0919 14:59:03.580680 30642 layer_factory.hpp:77] Creating layer inception_5a/3x3_reduce/bn/sc
I0919 14:59:03.580775 30642 net.cpp:150] Setting up inception_5a/3x3_reduce/bn/sc
I0919 14:59:03.580782 30642 net.cpp:157] Top shape: 1 192 32 32 (196608)
I0919 14:59:03.580785 30642 net.cpp:165] Memory required for data: 1774190596
I0919 14:59:03.580790 30642 layer_factory.hpp:77] Creating layer inception_5a/3x3_reduce/bn/sc/relu
I0919 14:59:03.580796 30642 net.cpp:100] Creating Layer inception_5a/3x3_reduce/bn/sc/relu
I0919 14:59:03.580799 30642 net.cpp:434] inception_5a/3x3_reduce/bn/sc/relu <- inception_5a/3x3_reduce/bn/sc
I0919 14:59:03.580807 30642 net.cpp:395] inception_5a/3x3_reduce/bn/sc/relu -> inception_5a/3x3_reduce/bn/sc (in-place)
I0919 14:59:03.580813 30642 net.cpp:150] Setting up inception_5a/3x3_reduce/bn/sc/relu
I0919 14:59:03.580818 30642 net.cpp:157] Top shape: 1 192 32 32 (196608)
I0919 14:59:03.580821 30642 net.cpp:165] Memory required for data: 1774977028
I0919 14:59:03.580823 30642 layer_factory.hpp:77] Creating layer inception_5a/3x3
I0919 14:59:03.580891 30642 net.cpp:100] Creating Layer inception_5a/3x3
I0919 14:59:03.580898 30642 net.cpp:434] inception_5a/3x3 <- inception_5a/3x3_reduce/bn/sc
I0919 14:59:03.580902 30642 net.cpp:408] inception_5a/3x3 -> inception_5a/3x3
I0919 14:59:03.585047 30642 net.cpp:150] Setting up inception_5a/3x3
I0919 14:59:03.585062 30642 net.cpp:157] Top shape: 1 320 32 32 (327680)
I0919 14:59:03.585064 30642 net.cpp:165] Memory required for data: 1776287748
I0919 14:59:03.585072 30642 layer_factory.hpp:77] Creating layer inception_5a/3x3/bn
I0919 14:59:03.585080 30642 net.cpp:100] Creating Layer inception_5a/3x3/bn
I0919 14:59:03.585085 30642 net.cpp:434] inception_5a/3x3/bn <- inception_5a/3x3
I0919 14:59:03.585091 30642 net.cpp:408] inception_5a/3x3/bn -> inception_5a/3x3/bn
I0919 14:59:03.585297 30642 net.cpp:150] Setting up inception_5a/3x3/bn
I0919 14:59:03.585304 30642 net.cpp:157] Top shape: 1 320 32 32 (327680)
I0919 14:59:03.585307 30642 net.cpp:165] Memory required for data: 1777598468
I0919 14:59:03.585314 30642 layer_factory.hpp:77] Creating layer inception_5a/3x3/bn/sc
I0919 14:59:03.585321 30642 net.cpp:100] Creating Layer inception_5a/3x3/bn/sc
I0919 14:59:03.585325 30642 net.cpp:434] inception_5a/3x3/bn/sc <- inception_5a/3x3/bn
I0919 14:59:03.585330 30642 net.cpp:408] inception_5a/3x3/bn/sc -> inception_5a/3x3/bn/sc
I0919 14:59:03.585359 30642 layer_factory.hpp:77] Creating layer inception_5a/3x3/bn/sc
I0919 14:59:03.585463 30642 net.cpp:150] Setting up inception_5a/3x3/bn/sc
I0919 14:59:03.585469 30642 net.cpp:157] Top shape: 1 320 32 32 (327680)
I0919 14:59:03.585472 30642 net.cpp:165] Memory required for data: 1778909188
I0919 14:59:03.585479 30642 layer_factory.hpp:77] Creating layer inception_5a/3x3/bn/sc/relu
I0919 14:59:03.585484 30642 net.cpp:100] Creating Layer inception_5a/3x3/bn/sc/relu
I0919 14:59:03.585489 30642 net.cpp:434] inception_5a/3x3/bn/sc/relu <- inception_5a/3x3/bn/sc
I0919 14:59:03.585494 30642 net.cpp:395] inception_5a/3x3/bn/sc/relu -> inception_5a/3x3/bn/sc (in-place)
I0919 14:59:03.585499 30642 net.cpp:150] Setting up inception_5a/3x3/bn/sc/relu
I0919 14:59:03.585505 30642 net.cpp:157] Top shape: 1 320 32 32 (327680)
I0919 14:59:03.585507 30642 net.cpp:165] Memory required for data: 1780219908
I0919 14:59:03.585510 30642 layer_factory.hpp:77] Creating layer inception_5a/double3x3_reduce
I0919 14:59:03.585517 30642 net.cpp:100] Creating Layer inception_5a/double3x3_reduce
I0919 14:59:03.585521 30642 net.cpp:434] inception_5a/double3x3_reduce <- inception_4e/output_inception_4e/output_0_split_2
I0919 14:59:03.585541 30642 net.cpp:408] inception_5a/double3x3_reduce -> inception_5a/double3x3_reduce
I0919 14:59:03.586572 30642 net.cpp:150] Setting up inception_5a/double3x3_reduce
I0919 14:59:03.586580 30642 net.cpp:157] Top shape: 1 160 32 32 (163840)
I0919 14:59:03.586583 30642 net.cpp:165] Memory required for data: 1780875268
I0919 14:59:03.586591 30642 layer_factory.hpp:77] Creating layer inception_5a/double3x3_reduce/bn
I0919 14:59:03.586598 30642 net.cpp:100] Creating Layer inception_5a/double3x3_reduce/bn
I0919 14:59:03.586602 30642 net.cpp:434] inception_5a/double3x3_reduce/bn <- inception_5a/double3x3_reduce
I0919 14:59:03.586606 30642 net.cpp:408] inception_5a/double3x3_reduce/bn -> inception_5a/double3x3_reduce/bn
I0919 14:59:03.586787 30642 net.cpp:150] Setting up inception_5a/double3x3_reduce/bn
I0919 14:59:03.586794 30642 net.cpp:157] Top shape: 1 160 32 32 (163840)
I0919 14:59:03.586797 30642 net.cpp:165] Memory required for data: 1781530628
I0919 14:59:03.586803 30642 layer_factory.hpp:77] Creating layer inception_5a/double3x3_reduce/bn/sc
I0919 14:59:03.586810 30642 net.cpp:100] Creating Layer inception_5a/double3x3_reduce/bn/sc
I0919 14:59:03.586814 30642 net.cpp:434] inception_5a/double3x3_reduce/bn/sc <- inception_5a/double3x3_reduce/bn
I0919 14:59:03.586819 30642 net.cpp:408] inception_5a/double3x3_reduce/bn/sc -> inception_5a/double3x3_reduce/bn/sc
I0919 14:59:03.586853 30642 layer_factory.hpp:77] Creating layer inception_5a/double3x3_reduce/bn/sc
I0919 14:59:03.586947 30642 net.cpp:150] Setting up inception_5a/double3x3_reduce/bn/sc
I0919 14:59:03.586963 30642 net.cpp:157] Top shape: 1 160 32 32 (163840)
I0919 14:59:03.586966 30642 net.cpp:165] Memory required for data: 1782185988
I0919 14:59:03.586974 30642 layer_factory.hpp:77] Creating layer inception_5a/double3x3_reduce/bn/sc/relu
I0919 14:59:03.586979 30642 net.cpp:100] Creating Layer inception_5a/double3x3_reduce/bn/sc/relu
I0919 14:59:03.586983 30642 net.cpp:434] inception_5a/double3x3_reduce/bn/sc/relu <- inception_5a/double3x3_reduce/bn/sc
I0919 14:59:03.586989 30642 net.cpp:395] inception_5a/double3x3_reduce/bn/sc/relu -> inception_5a/double3x3_reduce/bn/sc (in-place)
I0919 14:59:03.586994 30642 net.cpp:150] Setting up inception_5a/double3x3_reduce/bn/sc/relu
I0919 14:59:03.586998 30642 net.cpp:157] Top shape: 1 160 32 32 (163840)
I0919 14:59:03.587002 30642 net.cpp:165] Memory required for data: 1782841348
I0919 14:59:03.587004 30642 layer_factory.hpp:77] Creating layer inception_5a/double3x3a
I0919 14:59:03.587013 30642 net.cpp:100] Creating Layer inception_5a/double3x3a
I0919 14:59:03.587016 30642 net.cpp:434] inception_5a/double3x3a <- inception_5a/double3x3_reduce/bn/sc
I0919 14:59:03.587024 30642 net.cpp:408] inception_5a/double3x3a -> inception_5a/double3x3a
I0919 14:59:03.590059 30642 net.cpp:150] Setting up inception_5a/double3x3a
I0919 14:59:03.590072 30642 net.cpp:157] Top shape: 1 224 32 32 (229376)
I0919 14:59:03.590075 30642 net.cpp:165] Memory required for data: 1783758852
I0919 14:59:03.590082 30642 layer_factory.hpp:77] Creating layer inception_5a/double3x3a/bn
I0919 14:59:03.590090 30642 net.cpp:100] Creating Layer inception_5a/double3x3a/bn
I0919 14:59:03.590095 30642 net.cpp:434] inception_5a/double3x3a/bn <- inception_5a/double3x3a
I0919 14:59:03.590101 30642 net.cpp:408] inception_5a/double3x3a/bn -> inception_5a/double3x3a/bn
I0919 14:59:03.590286 30642 net.cpp:150] Setting up inception_5a/double3x3a/bn
I0919 14:59:03.590292 30642 net.cpp:157] Top shape: 1 224 32 32 (229376)
I0919 14:59:03.590296 30642 net.cpp:165] Memory required for data: 1784676356
I0919 14:59:03.590303 30642 layer_factory.hpp:77] Creating layer inception_5a/double3x3a/bn/sc
I0919 14:59:03.590310 30642 net.cpp:100] Creating Layer inception_5a/double3x3a/bn/sc
I0919 14:59:03.590313 30642 net.cpp:434] inception_5a/double3x3a/bn/sc <- inception_5a/double3x3a/bn
I0919 14:59:03.590322 30642 net.cpp:408] inception_5a/double3x3a/bn/sc -> inception_5a/double3x3a/bn/sc
I0919 14:59:03.590355 30642 layer_factory.hpp:77] Creating layer inception_5a/double3x3a/bn/sc
I0919 14:59:03.590463 30642 net.cpp:150] Setting up inception_5a/double3x3a/bn/sc
I0919 14:59:03.590469 30642 net.cpp:157] Top shape: 1 224 32 32 (229376)
I0919 14:59:03.590472 30642 net.cpp:165] Memory required for data: 1785593860
I0919 14:59:03.590478 30642 layer_factory.hpp:77] Creating layer inception_5a/double3x3a/bn/sc/relu
I0919 14:59:03.590483 30642 net.cpp:100] Creating Layer inception_5a/double3x3a/bn/sc/relu
I0919 14:59:03.590487 30642 net.cpp:434] inception_5a/double3x3a/bn/sc/relu <- inception_5a/double3x3a/bn/sc
I0919 14:59:03.590495 30642 net.cpp:395] inception_5a/double3x3a/bn/sc/relu -> inception_5a/double3x3a/bn/sc (in-place)
I0919 14:59:03.590500 30642 net.cpp:150] Setting up inception_5a/double3x3a/bn/sc/relu
I0919 14:59:03.590505 30642 net.cpp:157] Top shape: 1 224 32 32 (229376)
I0919 14:59:03.590508 30642 net.cpp:165] Memory required for data: 1786511364
I0919 14:59:03.590510 30642 layer_factory.hpp:77] Creating layer inception_5a/double3x3b
I0919 14:59:03.590521 30642 net.cpp:100] Creating Layer inception_5a/double3x3b
I0919 14:59:03.590526 30642 net.cpp:434] inception_5a/double3x3b <- inception_5a/double3x3a/bn/sc
I0919 14:59:03.590531 30642 net.cpp:408] inception_5a/double3x3b -> inception_5a/double3x3b
I0919 14:59:03.594113 30642 net.cpp:150] Setting up inception_5a/double3x3b
I0919 14:59:03.594126 30642 net.cpp:157] Top shape: 1 224 32 32 (229376)
I0919 14:59:03.594130 30642 net.cpp:165] Memory required for data: 1787428868
I0919 14:59:03.594137 30642 layer_factory.hpp:77] Creating layer inception_5a/double3x3b/bn
I0919 14:59:03.594144 30642 net.cpp:100] Creating Layer inception_5a/double3x3b/bn
I0919 14:59:03.594148 30642 net.cpp:434] inception_5a/double3x3b/bn <- inception_5a/double3x3b
I0919 14:59:03.594154 30642 net.cpp:408] inception_5a/double3x3b/bn -> inception_5a/double3x3b/bn
I0919 14:59:03.594354 30642 net.cpp:150] Setting up inception_5a/double3x3b/bn
I0919 14:59:03.594362 30642 net.cpp:157] Top shape: 1 224 32 32 (229376)
I0919 14:59:03.594364 30642 net.cpp:165] Memory required for data: 1788346372
I0919 14:59:03.594372 30642 layer_factory.hpp:77] Creating layer inception_5a/double3x3b/bn/sc
I0919 14:59:03.594379 30642 net.cpp:100] Creating Layer inception_5a/double3x3b/bn/sc
I0919 14:59:03.594383 30642 net.cpp:434] inception_5a/double3x3b/bn/sc <- inception_5a/double3x3b/bn
I0919 14:59:03.594389 30642 net.cpp:408] inception_5a/double3x3b/bn/sc -> inception_5a/double3x3b/bn/sc
I0919 14:59:03.594424 30642 layer_factory.hpp:77] Creating layer inception_5a/double3x3b/bn/sc
I0919 14:59:03.594523 30642 net.cpp:150] Setting up inception_5a/double3x3b/bn/sc
I0919 14:59:03.594530 30642 net.cpp:157] Top shape: 1 224 32 32 (229376)
I0919 14:59:03.594533 30642 net.cpp:165] Memory required for data: 1789263876
I0919 14:59:03.594539 30642 layer_factory.hpp:77] Creating layer inception_5a/double3x3b/bn/sc/relu
I0919 14:59:03.594543 30642 net.cpp:100] Creating Layer inception_5a/double3x3b/bn/sc/relu
I0919 14:59:03.594547 30642 net.cpp:434] inception_5a/double3x3b/bn/sc/relu <- inception_5a/double3x3b/bn/sc
I0919 14:59:03.594552 30642 net.cpp:395] inception_5a/double3x3b/bn/sc/relu -> inception_5a/double3x3b/bn/sc (in-place)
I0919 14:59:03.594558 30642 net.cpp:150] Setting up inception_5a/double3x3b/bn/sc/relu
I0919 14:59:03.594563 30642 net.cpp:157] Top shape: 1 224 32 32 (229376)
I0919 14:59:03.594565 30642 net.cpp:165] Memory required for data: 1790181380
I0919 14:59:03.594568 30642 layer_factory.hpp:77] Creating layer inception_5a/pool
I0919 14:59:03.594576 30642 net.cpp:100] Creating Layer inception_5a/pool
I0919 14:59:03.594579 30642 net.cpp:434] inception_5a/pool <- inception_4e/output_inception_4e/output_0_split_3
I0919 14:59:03.594584 30642 net.cpp:408] inception_5a/pool -> inception_5a/pool
I0919 14:59:03.594606 30642 net.cpp:150] Setting up inception_5a/pool
I0919 14:59:03.594614 30642 net.cpp:157] Top shape: 1 1024 32 32 (1048576)
I0919 14:59:03.594617 30642 net.cpp:165] Memory required for data: 1794375684
I0919 14:59:03.594619 30642 layer_factory.hpp:77] Creating layer inception_5a/pool_proj
I0919 14:59:03.594638 30642 net.cpp:100] Creating Layer inception_5a/pool_proj
I0919 14:59:03.594642 30642 net.cpp:434] inception_5a/pool_proj <- inception_5a/pool
I0919 14:59:03.594650 30642 net.cpp:408] inception_5a/pool_proj -> inception_5a/pool_proj
I0919 14:59:03.595510 30642 net.cpp:150] Setting up inception_5a/pool_proj
I0919 14:59:03.595518 30642 net.cpp:157] Top shape: 1 128 32 32 (131072)
I0919 14:59:03.595522 30642 net.cpp:165] Memory required for data: 1794899972
I0919 14:59:03.595528 30642 layer_factory.hpp:77] Creating layer inception_5a/pool_proj/bn
I0919 14:59:03.595536 30642 net.cpp:100] Creating Layer inception_5a/pool_proj/bn
I0919 14:59:03.595540 30642 net.cpp:434] inception_5a/pool_proj/bn <- inception_5a/pool_proj
I0919 14:59:03.595546 30642 net.cpp:408] inception_5a/pool_proj/bn -> inception_5a/pool_proj/bn
I0919 14:59:03.595716 30642 net.cpp:150] Setting up inception_5a/pool_proj/bn
I0919 14:59:03.595723 30642 net.cpp:157] Top shape: 1 128 32 32 (131072)
I0919 14:59:03.595726 30642 net.cpp:165] Memory required for data: 1795424260
I0919 14:59:03.595736 30642 layer_factory.hpp:77] Creating layer inception_5a/pool_proj/bn/sc
I0919 14:59:03.595741 30642 net.cpp:100] Creating Layer inception_5a/pool_proj/bn/sc
I0919 14:59:03.595744 30642 net.cpp:434] inception_5a/pool_proj/bn/sc <- inception_5a/pool_proj/bn
I0919 14:59:03.595748 30642 net.cpp:408] inception_5a/pool_proj/bn/sc -> inception_5a/pool_proj/bn/sc
I0919 14:59:03.595783 30642 layer_factory.hpp:77] Creating layer inception_5a/pool_proj/bn/sc
I0919 14:59:03.595877 30642 net.cpp:150] Setting up inception_5a/pool_proj/bn/sc
I0919 14:59:03.595883 30642 net.cpp:157] Top shape: 1 128 32 32 (131072)
I0919 14:59:03.595886 30642 net.cpp:165] Memory required for data: 1795948548
I0919 14:59:03.595892 30642 layer_factory.hpp:77] Creating layer inception_5a/pool_proj/bn/sc/relu
I0919 14:59:03.595897 30642 net.cpp:100] Creating Layer inception_5a/pool_proj/bn/sc/relu
I0919 14:59:03.595901 30642 net.cpp:434] inception_5a/pool_proj/bn/sc/relu <- inception_5a/pool_proj/bn/sc
I0919 14:59:03.595907 30642 net.cpp:395] inception_5a/pool_proj/bn/sc/relu -> inception_5a/pool_proj/bn/sc (in-place)
I0919 14:59:03.595913 30642 net.cpp:150] Setting up inception_5a/pool_proj/bn/sc/relu
I0919 14:59:03.595918 30642 net.cpp:157] Top shape: 1 128 32 32 (131072)
I0919 14:59:03.595921 30642 net.cpp:165] Memory required for data: 1796472836
I0919 14:59:03.595924 30642 layer_factory.hpp:77] Creating layer inception_5a/output
I0919 14:59:03.595932 30642 net.cpp:100] Creating Layer inception_5a/output
I0919 14:59:03.595935 30642 net.cpp:434] inception_5a/output <- inception_5a/1x1/bn/sc
I0919 14:59:03.595939 30642 net.cpp:434] inception_5a/output <- inception_5a/3x3/bn/sc
I0919 14:59:03.595943 30642 net.cpp:434] inception_5a/output <- inception_5a/double3x3b/bn/sc
I0919 14:59:03.595947 30642 net.cpp:434] inception_5a/output <- inception_5a/pool_proj/bn/sc
I0919 14:59:03.595952 30642 net.cpp:408] inception_5a/output -> inception_5a/output
I0919 14:59:03.595974 30642 net.cpp:150] Setting up inception_5a/output
I0919 14:59:03.595980 30642 net.cpp:157] Top shape: 1 1024 32 32 (1048576)
I0919 14:59:03.595984 30642 net.cpp:165] Memory required for data: 1800667140
I0919 14:59:03.595988 30642 layer_factory.hpp:77] Creating layer inception_5a/output_inception_5a/output_0_split
I0919 14:59:03.595994 30642 net.cpp:100] Creating Layer inception_5a/output_inception_5a/output_0_split
I0919 14:59:03.595998 30642 net.cpp:434] inception_5a/output_inception_5a/output_0_split <- inception_5a/output
I0919 14:59:03.596004 30642 net.cpp:408] inception_5a/output_inception_5a/output_0_split -> inception_5a/output_inception_5a/output_0_split_0
I0919 14:59:03.596011 30642 net.cpp:408] inception_5a/output_inception_5a/output_0_split -> inception_5a/output_inception_5a/output_0_split_1
I0919 14:59:03.596017 30642 net.cpp:408] inception_5a/output_inception_5a/output_0_split -> inception_5a/output_inception_5a/output_0_split_2
I0919 14:59:03.596024 30642 net.cpp:408] inception_5a/output_inception_5a/output_0_split -> inception_5a/output_inception_5a/output_0_split_3
I0919 14:59:03.596086 30642 net.cpp:150] Setting up inception_5a/output_inception_5a/output_0_split
I0919 14:59:03.596093 30642 net.cpp:157] Top shape: 1 1024 32 32 (1048576)
I0919 14:59:03.596096 30642 net.cpp:157] Top shape: 1 1024 32 32 (1048576)
I0919 14:59:03.596101 30642 net.cpp:157] Top shape: 1 1024 32 32 (1048576)
I0919 14:59:03.596105 30642 net.cpp:157] Top shape: 1 1024 32 32 (1048576)
I0919 14:59:03.596108 30642 net.cpp:165] Memory required for data: 1817444356
I0919 14:59:03.596112 30642 layer_factory.hpp:77] Creating layer inception_5b/1x1
I0919 14:59:03.596120 30642 net.cpp:100] Creating Layer inception_5b/1x1
I0919 14:59:03.596125 30642 net.cpp:434] inception_5b/1x1 <- inception_5a/output_inception_5a/output_0_split_0
I0919 14:59:03.596130 30642 net.cpp:408] inception_5b/1x1 -> inception_5b/1x1
I0919 14:59:03.599344 30642 net.cpp:150] Setting up inception_5b/1x1
I0919 14:59:03.599357 30642 net.cpp:157] Top shape: 1 352 32 32 (360448)
I0919 14:59:03.599364 30642 net.cpp:165] Memory required for data: 1818886148
I0919 14:59:03.599370 30642 layer_factory.hpp:77] Creating layer inception_5b/1x1/bn
I0919 14:59:03.599376 30642 net.cpp:100] Creating Layer inception_5b/1x1/bn
I0919 14:59:03.599380 30642 net.cpp:434] inception_5b/1x1/bn <- inception_5b/1x1
I0919 14:59:03.599387 30642 net.cpp:408] inception_5b/1x1/bn -> inception_5b/1x1/bn
I0919 14:59:03.599582 30642 net.cpp:150] Setting up inception_5b/1x1/bn
I0919 14:59:03.599588 30642 net.cpp:157] Top shape: 1 352 32 32 (360448)
I0919 14:59:03.599591 30642 net.cpp:165] Memory required for data: 1820327940
I0919 14:59:03.599598 30642 layer_factory.hpp:77] Creating layer inception_5b/1x1/bn/sc
I0919 14:59:03.599606 30642 net.cpp:100] Creating Layer inception_5b/1x1/bn/sc
I0919 14:59:03.599608 30642 net.cpp:434] inception_5b/1x1/bn/sc <- inception_5b/1x1/bn
I0919 14:59:03.599615 30642 net.cpp:408] inception_5b/1x1/bn/sc -> inception_5b/1x1/bn/sc
I0919 14:59:03.599645 30642 layer_factory.hpp:77] Creating layer inception_5b/1x1/bn/sc
I0919 14:59:03.599747 30642 net.cpp:150] Setting up inception_5b/1x1/bn/sc
I0919 14:59:03.599753 30642 net.cpp:157] Top shape: 1 352 32 32 (360448)
I0919 14:59:03.599756 30642 net.cpp:165] Memory required for data: 1821769732
I0919 14:59:03.599761 30642 layer_factory.hpp:77] Creating layer inception_5b/1x1/bn/sc/relu
I0919 14:59:03.599768 30642 net.cpp:100] Creating Layer inception_5b/1x1/bn/sc/relu
I0919 14:59:03.599771 30642 net.cpp:434] inception_5b/1x1/bn/sc/relu <- inception_5b/1x1/bn/sc
I0919 14:59:03.599776 30642 net.cpp:395] inception_5b/1x1/bn/sc/relu -> inception_5b/1x1/bn/sc (in-place)
I0919 14:59:03.599782 30642 net.cpp:150] Setting up inception_5b/1x1/bn/sc/relu
I0919 14:59:03.599788 30642 net.cpp:157] Top shape: 1 352 32 32 (360448)
I0919 14:59:03.599792 30642 net.cpp:165] Memory required for data: 1823211524
I0919 14:59:03.599794 30642 layer_factory.hpp:77] Creating layer inception_5b/3x3_reduce
I0919 14:59:03.599802 30642 net.cpp:100] Creating Layer inception_5b/3x3_reduce
I0919 14:59:03.599807 30642 net.cpp:434] inception_5b/3x3_reduce <- inception_5a/output_inception_5a/output_0_split_1
I0919 14:59:03.599813 30642 net.cpp:408] inception_5b/3x3_reduce -> inception_5b/3x3_reduce
I0919 14:59:03.602155 30642 net.cpp:150] Setting up inception_5b/3x3_reduce
I0919 14:59:03.602169 30642 net.cpp:157] Top shape: 1 192 32 32 (196608)
I0919 14:59:03.602174 30642 net.cpp:165] Memory required for data: 1823997956
I0919 14:59:03.602180 30642 layer_factory.hpp:77] Creating layer inception_5b/3x3_reduce/bn
I0919 14:59:03.602186 30642 net.cpp:100] Creating Layer inception_5b/3x3_reduce/bn
I0919 14:59:03.602191 30642 net.cpp:434] inception_5b/3x3_reduce/bn <- inception_5b/3x3_reduce
I0919 14:59:03.602200 30642 net.cpp:408] inception_5b/3x3_reduce/bn -> inception_5b/3x3_reduce/bn
I0919 14:59:03.602413 30642 net.cpp:150] Setting up inception_5b/3x3_reduce/bn
I0919 14:59:03.602419 30642 net.cpp:157] Top shape: 1 192 32 32 (196608)
I0919 14:59:03.602434 30642 net.cpp:165] Memory required for data: 1824784388
I0919 14:59:03.602442 30642 layer_factory.hpp:77] Creating layer inception_5b/3x3_reduce/bn/sc
I0919 14:59:03.602447 30642 net.cpp:100] Creating Layer inception_5b/3x3_reduce/bn/sc
I0919 14:59:03.602452 30642 net.cpp:434] inception_5b/3x3_reduce/bn/sc <- inception_5b/3x3_reduce/bn
I0919 14:59:03.602458 30642 net.cpp:408] inception_5b/3x3_reduce/bn/sc -> inception_5b/3x3_reduce/bn/sc
I0919 14:59:03.602493 30642 layer_factory.hpp:77] Creating layer inception_5b/3x3_reduce/bn/sc
I0919 14:59:03.602587 30642 net.cpp:150] Setting up inception_5b/3x3_reduce/bn/sc
I0919 14:59:03.602593 30642 net.cpp:157] Top shape: 1 192 32 32 (196608)
I0919 14:59:03.602597 30642 net.cpp:165] Memory required for data: 1825570820
I0919 14:59:03.602602 30642 layer_factory.hpp:77] Creating layer inception_5b/3x3_reduce/bn/sc/relu
I0919 14:59:03.602607 30642 net.cpp:100] Creating Layer inception_5b/3x3_reduce/bn/sc/relu
I0919 14:59:03.602612 30642 net.cpp:434] inception_5b/3x3_reduce/bn/sc/relu <- inception_5b/3x3_reduce/bn/sc
I0919 14:59:03.602618 30642 net.cpp:395] inception_5b/3x3_reduce/bn/sc/relu -> inception_5b/3x3_reduce/bn/sc (in-place)
I0919 14:59:03.602623 30642 net.cpp:150] Setting up inception_5b/3x3_reduce/bn/sc/relu
I0919 14:59:03.602627 30642 net.cpp:157] Top shape: 1 192 32 32 (196608)
I0919 14:59:03.602630 30642 net.cpp:165] Memory required for data: 1826357252
I0919 14:59:03.602634 30642 layer_factory.hpp:77] Creating layer inception_5b/3x3
I0919 14:59:03.602643 30642 net.cpp:100] Creating Layer inception_5b/3x3
I0919 14:59:03.602645 30642 net.cpp:434] inception_5b/3x3 <- inception_5b/3x3_reduce/bn/sc
I0919 14:59:03.602650 30642 net.cpp:408] inception_5b/3x3 -> inception_5b/3x3
I0919 14:59:03.606761 30642 net.cpp:150] Setting up inception_5b/3x3
I0919 14:59:03.606775 30642 net.cpp:157] Top shape: 1 320 32 32 (327680)
I0919 14:59:03.606778 30642 net.cpp:165] Memory required for data: 1827667972
I0919 14:59:03.606786 30642 layer_factory.hpp:77] Creating layer inception_5b/3x3/bn
I0919 14:59:03.606794 30642 net.cpp:100] Creating Layer inception_5b/3x3/bn
I0919 14:59:03.606799 30642 net.cpp:434] inception_5b/3x3/bn <- inception_5b/3x3
I0919 14:59:03.606807 30642 net.cpp:408] inception_5b/3x3/bn -> inception_5b/3x3/bn
I0919 14:59:03.607025 30642 net.cpp:150] Setting up inception_5b/3x3/bn
I0919 14:59:03.607033 30642 net.cpp:157] Top shape: 1 320 32 32 (327680)
I0919 14:59:03.607035 30642 net.cpp:165] Memory required for data: 1828978692
I0919 14:59:03.607043 30642 layer_factory.hpp:77] Creating layer inception_5b/3x3/bn/sc
I0919 14:59:03.607048 30642 net.cpp:100] Creating Layer inception_5b/3x3/bn/sc
I0919 14:59:03.607053 30642 net.cpp:434] inception_5b/3x3/bn/sc <- inception_5b/3x3/bn
I0919 14:59:03.607058 30642 net.cpp:408] inception_5b/3x3/bn/sc -> inception_5b/3x3/bn/sc
I0919 14:59:03.607089 30642 layer_factory.hpp:77] Creating layer inception_5b/3x3/bn/sc
I0919 14:59:03.607188 30642 net.cpp:150] Setting up inception_5b/3x3/bn/sc
I0919 14:59:03.607197 30642 net.cpp:157] Top shape: 1 320 32 32 (327680)
I0919 14:59:03.607201 30642 net.cpp:165] Memory required for data: 1830289412
I0919 14:59:03.607206 30642 layer_factory.hpp:77] Creating layer inception_5b/3x3/bn/sc/relu
I0919 14:59:03.607211 30642 net.cpp:100] Creating Layer inception_5b/3x3/bn/sc/relu
I0919 14:59:03.607216 30642 net.cpp:434] inception_5b/3x3/bn/sc/relu <- inception_5b/3x3/bn/sc
I0919 14:59:03.607221 30642 net.cpp:395] inception_5b/3x3/bn/sc/relu -> inception_5b/3x3/bn/sc (in-place)
I0919 14:59:03.607226 30642 net.cpp:150] Setting up inception_5b/3x3/bn/sc/relu
I0919 14:59:03.607230 30642 net.cpp:157] Top shape: 1 320 32 32 (327680)
I0919 14:59:03.607236 30642 net.cpp:165] Memory required for data: 1831600132
I0919 14:59:03.607239 30642 layer_factory.hpp:77] Creating layer inception_5b/double3x3_reduce
I0919 14:59:03.607247 30642 net.cpp:100] Creating Layer inception_5b/double3x3_reduce
I0919 14:59:03.607251 30642 net.cpp:434] inception_5b/double3x3_reduce <- inception_5a/output_inception_5a/output_0_split_2
I0919 14:59:03.607273 30642 net.cpp:408] inception_5b/double3x3_reduce -> inception_5b/double3x3_reduce
I0919 14:59:03.608479 30642 net.cpp:150] Setting up inception_5b/double3x3_reduce
I0919 14:59:03.608489 30642 net.cpp:157] Top shape: 1 192 32 32 (196608)
I0919 14:59:03.608491 30642 net.cpp:165] Memory required for data: 1832386564
I0919 14:59:03.608496 30642 layer_factory.hpp:77] Creating layer inception_5b/double3x3_reduce/bn
I0919 14:59:03.608502 30642 net.cpp:100] Creating Layer inception_5b/double3x3_reduce/bn
I0919 14:59:03.608505 30642 net.cpp:434] inception_5b/double3x3_reduce/bn <- inception_5b/double3x3_reduce
I0919 14:59:03.608516 30642 net.cpp:408] inception_5b/double3x3_reduce/bn -> inception_5b/double3x3_reduce/bn
I0919 14:59:03.608770 30642 net.cpp:150] Setting up inception_5b/double3x3_reduce/bn
I0919 14:59:03.608780 30642 net.cpp:157] Top shape: 1 192 32 32 (196608)
I0919 14:59:03.608783 30642 net.cpp:165] Memory required for data: 1833172996
I0919 14:59:03.608789 30642 layer_factory.hpp:77] Creating layer inception_5b/double3x3_reduce/bn/sc
I0919 14:59:03.608798 30642 net.cpp:100] Creating Layer inception_5b/double3x3_reduce/bn/sc
I0919 14:59:03.608800 30642 net.cpp:434] inception_5b/double3x3_reduce/bn/sc <- inception_5b/double3x3_reduce/bn
I0919 14:59:03.608805 30642 net.cpp:408] inception_5b/double3x3_reduce/bn/sc -> inception_5b/double3x3_reduce/bn/sc
I0919 14:59:03.608839 30642 layer_factory.hpp:77] Creating layer inception_5b/double3x3_reduce/bn/sc
I0919 14:59:03.608939 30642 net.cpp:150] Setting up inception_5b/double3x3_reduce/bn/sc
I0919 14:59:03.608947 30642 net.cpp:157] Top shape: 1 192 32 32 (196608)
I0919 14:59:03.608952 30642 net.cpp:165] Memory required for data: 1833959428
I0919 14:59:03.608958 30642 layer_factory.hpp:77] Creating layer inception_5b/double3x3_reduce/bn/sc/relu
I0919 14:59:03.608963 30642 net.cpp:100] Creating Layer inception_5b/double3x3_reduce/bn/sc/relu
I0919 14:59:03.608965 30642 net.cpp:434] inception_5b/double3x3_reduce/bn/sc/relu <- inception_5b/double3x3_reduce/bn/sc
I0919 14:59:03.608970 30642 net.cpp:395] inception_5b/double3x3_reduce/bn/sc/relu -> inception_5b/double3x3_reduce/bn/sc (in-place)
I0919 14:59:03.608975 30642 net.cpp:150] Setting up inception_5b/double3x3_reduce/bn/sc/relu
I0919 14:59:03.608979 30642 net.cpp:157] Top shape: 1 192 32 32 (196608)
I0919 14:59:03.608983 30642 net.cpp:165] Memory required for data: 1834745860
I0919 14:59:03.608985 30642 layer_factory.hpp:77] Creating layer inception_5b/double3x3a
I0919 14:59:03.608994 30642 net.cpp:100] Creating Layer inception_5b/double3x3a
I0919 14:59:03.608997 30642 net.cpp:434] inception_5b/double3x3a <- inception_5b/double3x3_reduce/bn/sc
I0919 14:59:03.609005 30642 net.cpp:408] inception_5b/double3x3a -> inception_5b/double3x3a
I0919 14:59:03.612387 30642 net.cpp:150] Setting up inception_5b/double3x3a
I0919 14:59:03.612401 30642 net.cpp:157] Top shape: 1 224 32 32 (229376)
I0919 14:59:03.612404 30642 net.cpp:165] Memory required for data: 1835663364
I0919 14:59:03.612411 30642 layer_factory.hpp:77] Creating layer inception_5b/double3x3a/bn
I0919 14:59:03.612419 30642 net.cpp:100] Creating Layer inception_5b/double3x3a/bn
I0919 14:59:03.612426 30642 net.cpp:434] inception_5b/double3x3a/bn <- inception_5b/double3x3a
I0919 14:59:03.612433 30642 net.cpp:408] inception_5b/double3x3a/bn -> inception_5b/double3x3a/bn
I0919 14:59:03.612627 30642 net.cpp:150] Setting up inception_5b/double3x3a/bn
I0919 14:59:03.612634 30642 net.cpp:157] Top shape: 1 224 32 32 (229376)
I0919 14:59:03.612637 30642 net.cpp:165] Memory required for data: 1836580868
I0919 14:59:03.612644 30642 layer_factory.hpp:77] Creating layer inception_5b/double3x3a/bn/sc
I0919 14:59:03.612650 30642 net.cpp:100] Creating Layer inception_5b/double3x3a/bn/sc
I0919 14:59:03.612654 30642 net.cpp:434] inception_5b/double3x3a/bn/sc <- inception_5b/double3x3a/bn
I0919 14:59:03.612660 30642 net.cpp:408] inception_5b/double3x3a/bn/sc -> inception_5b/double3x3a/bn/sc
I0919 14:59:03.612696 30642 layer_factory.hpp:77] Creating layer inception_5b/double3x3a/bn/sc
I0919 14:59:03.612809 30642 net.cpp:150] Setting up inception_5b/double3x3a/bn/sc
I0919 14:59:03.612818 30642 net.cpp:157] Top shape: 1 224 32 32 (229376)
I0919 14:59:03.612819 30642 net.cpp:165] Memory required for data: 1837498372
I0919 14:59:03.612826 30642 layer_factory.hpp:77] Creating layer inception_5b/double3x3a/bn/sc/relu
I0919 14:59:03.612830 30642 net.cpp:100] Creating Layer inception_5b/double3x3a/bn/sc/relu
I0919 14:59:03.612834 30642 net.cpp:434] inception_5b/double3x3a/bn/sc/relu <- inception_5b/double3x3a/bn/sc
I0919 14:59:03.612840 30642 net.cpp:395] inception_5b/double3x3a/bn/sc/relu -> inception_5b/double3x3a/bn/sc (in-place)
I0919 14:59:03.612846 30642 net.cpp:150] Setting up inception_5b/double3x3a/bn/sc/relu
I0919 14:59:03.612852 30642 net.cpp:157] Top shape: 1 224 32 32 (229376)
I0919 14:59:03.612854 30642 net.cpp:165] Memory required for data: 1838415876
I0919 14:59:03.612857 30642 layer_factory.hpp:77] Creating layer inception_5b/double3x3b
I0919 14:59:03.612867 30642 net.cpp:100] Creating Layer inception_5b/double3x3b
I0919 14:59:03.612870 30642 net.cpp:434] inception_5b/double3x3b <- inception_5b/double3x3a/bn/sc
I0919 14:59:03.612875 30642 net.cpp:408] inception_5b/double3x3b -> inception_5b/double3x3b
I0919 14:59:03.616458 30642 net.cpp:150] Setting up inception_5b/double3x3b
I0919 14:59:03.616472 30642 net.cpp:157] Top shape: 1 224 32 32 (229376)
I0919 14:59:03.616475 30642 net.cpp:165] Memory required for data: 1839333380
I0919 14:59:03.616482 30642 layer_factory.hpp:77] Creating layer inception_5b/double3x3b/bn
I0919 14:59:03.616489 30642 net.cpp:100] Creating Layer inception_5b/double3x3b/bn
I0919 14:59:03.616493 30642 net.cpp:434] inception_5b/double3x3b/bn <- inception_5b/double3x3b
I0919 14:59:03.616499 30642 net.cpp:408] inception_5b/double3x3b/bn -> inception_5b/double3x3b/bn
I0919 14:59:03.616684 30642 net.cpp:150] Setting up inception_5b/double3x3b/bn
I0919 14:59:03.616690 30642 net.cpp:157] Top shape: 1 224 32 32 (229376)
I0919 14:59:03.616694 30642 net.cpp:165] Memory required for data: 1840250884
I0919 14:59:03.616699 30642 layer_factory.hpp:77] Creating layer inception_5b/double3x3b/bn/sc
I0919 14:59:03.616708 30642 net.cpp:100] Creating Layer inception_5b/double3x3b/bn/sc
I0919 14:59:03.616710 30642 net.cpp:434] inception_5b/double3x3b/bn/sc <- inception_5b/double3x3b/bn
I0919 14:59:03.616717 30642 net.cpp:408] inception_5b/double3x3b/bn/sc -> inception_5b/double3x3b/bn/sc
I0919 14:59:03.616749 30642 layer_factory.hpp:77] Creating layer inception_5b/double3x3b/bn/sc
I0919 14:59:03.616842 30642 net.cpp:150] Setting up inception_5b/double3x3b/bn/sc
I0919 14:59:03.616849 30642 net.cpp:157] Top shape: 1 224 32 32 (229376)
I0919 14:59:03.616853 30642 net.cpp:165] Memory required for data: 1841168388
I0919 14:59:03.616858 30642 layer_factory.hpp:77] Creating layer inception_5b/double3x3b/bn/sc/relu
I0919 14:59:03.616868 30642 net.cpp:100] Creating Layer inception_5b/double3x3b/bn/sc/relu
I0919 14:59:03.616871 30642 net.cpp:434] inception_5b/double3x3b/bn/sc/relu <- inception_5b/double3x3b/bn/sc
I0919 14:59:03.616876 30642 net.cpp:395] inception_5b/double3x3b/bn/sc/relu -> inception_5b/double3x3b/bn/sc (in-place)
I0919 14:59:03.616883 30642 net.cpp:150] Setting up inception_5b/double3x3b/bn/sc/relu
I0919 14:59:03.616886 30642 net.cpp:157] Top shape: 1 224 32 32 (229376)
I0919 14:59:03.616889 30642 net.cpp:165] Memory required for data: 1842085892
I0919 14:59:03.616892 30642 layer_factory.hpp:77] Creating layer inception_5b/pool
I0919 14:59:03.616897 30642 net.cpp:100] Creating Layer inception_5b/pool
I0919 14:59:03.616904 30642 net.cpp:434] inception_5b/pool <- inception_5a/output_inception_5a/output_0_split_3
I0919 14:59:03.616907 30642 net.cpp:408] inception_5b/pool -> inception_5b/pool
I0919 14:59:03.616940 30642 net.cpp:150] Setting up inception_5b/pool
I0919 14:59:03.616945 30642 net.cpp:157] Top shape: 1 1024 32 32 (1048576)
I0919 14:59:03.616948 30642 net.cpp:165] Memory required for data: 1846280196
I0919 14:59:03.616951 30642 layer_factory.hpp:77] Creating layer inception_5b/pool_proj
I0919 14:59:03.616972 30642 net.cpp:100] Creating Layer inception_5b/pool_proj
I0919 14:59:03.616976 30642 net.cpp:434] inception_5b/pool_proj <- inception_5b/pool
I0919 14:59:03.616981 30642 net.cpp:408] inception_5b/pool_proj -> inception_5b/pool_proj
I0919 14:59:03.617846 30642 net.cpp:150] Setting up inception_5b/pool_proj
I0919 14:59:03.617856 30642 net.cpp:157] Top shape: 1 128 32 32 (131072)
I0919 14:59:03.617857 30642 net.cpp:165] Memory required for data: 1846804484
I0919 14:59:03.617864 30642 layer_factory.hpp:77] Creating layer inception_5b/pool_proj/bn
I0919 14:59:03.617869 30642 net.cpp:100] Creating Layer inception_5b/pool_proj/bn
I0919 14:59:03.617874 30642 net.cpp:434] inception_5b/pool_proj/bn <- inception_5b/pool_proj
I0919 14:59:03.617878 30642 net.cpp:408] inception_5b/pool_proj/bn -> inception_5b/pool_proj/bn
I0919 14:59:03.618062 30642 net.cpp:150] Setting up inception_5b/pool_proj/bn
I0919 14:59:03.618068 30642 net.cpp:157] Top shape: 1 128 32 32 (131072)
I0919 14:59:03.618072 30642 net.cpp:165] Memory required for data: 1847328772
I0919 14:59:03.618078 30642 layer_factory.hpp:77] Creating layer inception_5b/pool_proj/bn/sc
I0919 14:59:03.618084 30642 net.cpp:100] Creating Layer inception_5b/pool_proj/bn/sc
I0919 14:59:03.618089 30642 net.cpp:434] inception_5b/pool_proj/bn/sc <- inception_5b/pool_proj/bn
I0919 14:59:03.618096 30642 net.cpp:408] inception_5b/pool_proj/bn/sc -> inception_5b/pool_proj/bn/sc
I0919 14:59:03.618132 30642 layer_factory.hpp:77] Creating layer inception_5b/pool_proj/bn/sc
I0919 14:59:03.618227 30642 net.cpp:150] Setting up inception_5b/pool_proj/bn/sc
I0919 14:59:03.618233 30642 net.cpp:157] Top shape: 1 128 32 32 (131072)
I0919 14:59:03.618237 30642 net.cpp:165] Memory required for data: 1847853060
I0919 14:59:03.618242 30642 layer_factory.hpp:77] Creating layer inception_5b/pool_proj/bn/sc/relu
I0919 14:59:03.618247 30642 net.cpp:100] Creating Layer inception_5b/pool_proj/bn/sc/relu
I0919 14:59:03.618250 30642 net.cpp:434] inception_5b/pool_proj/bn/sc/relu <- inception_5b/pool_proj/bn/sc
I0919 14:59:03.618254 30642 net.cpp:395] inception_5b/pool_proj/bn/sc/relu -> inception_5b/pool_proj/bn/sc (in-place)
I0919 14:59:03.618260 30642 net.cpp:150] Setting up inception_5b/pool_proj/bn/sc/relu
I0919 14:59:03.618264 30642 net.cpp:157] Top shape: 1 128 32 32 (131072)
I0919 14:59:03.618268 30642 net.cpp:165] Memory required for data: 1848377348
I0919 14:59:03.618270 30642 layer_factory.hpp:77] Creating layer inception_5b/output
I0919 14:59:03.618278 30642 net.cpp:100] Creating Layer inception_5b/output
I0919 14:59:03.618283 30642 net.cpp:434] inception_5b/output <- inception_5b/1x1/bn/sc
I0919 14:59:03.618288 30642 net.cpp:434] inception_5b/output <- inception_5b/3x3/bn/sc
I0919 14:59:03.618294 30642 net.cpp:434] inception_5b/output <- inception_5b/double3x3b/bn/sc
I0919 14:59:03.618297 30642 net.cpp:434] inception_5b/output <- inception_5b/pool_proj/bn/sc
I0919 14:59:03.618302 30642 net.cpp:408] inception_5b/output -> inception_5b/output
I0919 14:59:03.618324 30642 net.cpp:150] Setting up inception_5b/output
I0919 14:59:03.618331 30642 net.cpp:157] Top shape: 1 1024 32 32 (1048576)
I0919 14:59:03.618335 30642 net.cpp:165] Memory required for data: 1852571652
I0919 14:59:03.618338 30642 layer_factory.hpp:77] Creating layer pool5/7x7_s1
I0919 14:59:03.618342 30642 net.cpp:100] Creating Layer pool5/7x7_s1
I0919 14:59:03.618348 30642 net.cpp:434] pool5/7x7_s1 <- inception_5b/output
I0919 14:59:03.618355 30642 net.cpp:408] pool5/7x7_s1 -> pool5/7x7_s1
I0919 14:59:03.618374 30642 net.cpp:150] Setting up pool5/7x7_s1
I0919 14:59:03.618381 30642 net.cpp:157] Top shape: 1 1024 26 26 (692224)
I0919 14:59:03.618383 30642 net.cpp:165] Memory required for data: 1855340548
I0919 14:59:03.618386 30642 layer_factory.hpp:77] Creating layer loss3/classifier
I0919 14:59:03.618396 30642 net.cpp:100] Creating Layer loss3/classifier
I0919 14:59:03.618402 30642 net.cpp:434] loss3/classifier <- pool5/7x7_s1
I0919 14:59:03.618408 30642 net.cpp:408] loss3/classifier -> loss3/classifier
I0919 14:59:03.629709 30642 net.cpp:150] Setting up loss3/classifier
I0919 14:59:03.629729 30642 net.cpp:157] Top shape: 1 2 (2)
I0919 14:59:03.629731 30642 net.cpp:165] Memory required for data: 1855340556
I0919 14:59:03.629741 30642 layer_factory.hpp:77] Creating layer loss3/prob
I0919 14:59:03.629751 30642 net.cpp:100] Creating Layer loss3/prob
I0919 14:59:03.629756 30642 net.cpp:434] loss3/prob <- loss3/classifier
I0919 14:59:03.629762 30642 net.cpp:408] loss3/prob -> loss3/prob
I0919 14:59:03.629818 30642 net.cpp:150] Setting up loss3/prob
I0919 14:59:03.629823 30642 net.cpp:157] Top shape: 1 2 (2)
I0919 14:59:03.629827 30642 net.cpp:165] Memory required for data: 1855340564
I0919 14:59:03.629830 30642 net.cpp:228] loss3/prob does not need backward computation.
I0919 14:59:03.629856 30642 net.cpp:228] loss3/classifier does not need backward computation.
I0919 14:59:03.629863 30642 net.cpp:228] pool5/7x7_s1 does not need backward computation.
I0919 14:59:03.629868 30642 net.cpp:228] inception_5b/output does not need backward computation.
…
